model/model.pth (torch, 17216 bytes, 4 tensors)

linear1.weight f4 [256, 11]
0.055429585 -0.48095155 0.4806975 0.17294447 0.046434037 -0.10627702 0.10556495 0.08260437
-0.13057041 0.17061935 0.070618965 0.8812576 -0.06652621 -0.058513932 0.36707637 0.20319344
-0.25318664 -0.36804646 -0.45714056 -0.20741405 0.18214677 0.381471 -0.35684526 0.80509025
0.023537891 0.34582174 -0.09993064 0.25753868 -0.28303942 0.33388856 -0.2952949 -0.23964761
-0.078887545 0.2381583 -0.31521845 0.66349095 -0.03645594 -0.029305117 -0.037527222 -0.015062597
0.23112121 0.08414313 0.23257264 0.12672918 -0.28838316 0.38354418 -0.1554324 -0.48840383
0.38104486 -0.07292953 -0.3802421 -0.32855368 0.10311832 0.057359107 -0.21459518 0.7422197
-0.15461104 0.26286647 -0.22754762 -0.011565315 -0.2838752 -0.042738054 0.29416096 0.18098204
0.2850101 0.28321862 0.85026544 -0.50925565 0.1765571 -0.10786137 -0.27686185 0.13042772
0.14608207 0.30773804 0.44559234 0.30216762 0.23870316 0.008558402 0.59227425 -0.46924803
0.14977174 -0.007225334 0.28138307 0.19874609 0.06288847 0.16142116 0.16664326 0.15052079
-0.28056338 0.06521034 0.024978183 -0.20632826 0.0076343 -0.116665974 -0.2351875 -0.25649858
0.024519652 -0.14730906 -0.22800621 0.24255998 0.32181293 -0.9018696 0.25965518 0.060178194
0.2725448 0.099374406 0.060725197 0.20852019 0.11656881 0.019850472 0.086536326 -0.6051724
0.62432635 0.20830552 0.25636256 -0.041942187 0.26184642 0.10013932 -0.21621408 0.27873445
0.12744868 0.30444014 0.34879452 -0.626651 -0.03042313 0.1475639 0.0978254 0.03171503
-0.15172687 -0.04936959 0.0026284298 -0.08122874 -0.61482584 0.17366932 0.60500896 0.19024453
-0.2615102 0.037728578 -0.20798565 0.16990092 0.005349632 0.1483706 -0.39992917 -0.11304612
0.08373669 0.42702475 -0.8869163 -0.32794335 0.16648608 -0.0010535975 -0.38481584 -0.46634907
0.1163938 0.35065967 -0.071325354 -0.381349 0.33002388 0.033878807 0.34850693 0.35245162
-0.19979605 -0.3437716 0.043183465 0.17396845 -0.21033724 -0.113356546 -0.31911546 0.119685546
-0.31897828 0.22365473 0.35145727 0.21628526 -0.47265682 0.083782375 -0.24574754 0.21231163
0.28930703 0.5504578 -0.16958904 -0.62576324 -0.05640238 -0.24999267 -0.075700924 0.2999723
0.09968385 0.2725335 -0.03151577 0.9290508 0.54115206 -0.7336499 0.048755992 -0.21497454
0.3385206 0.048134796 0.18403324 0.42072192 -0.071035296 0.3818862 0.48641062 0.8582205
0.46058306 -0.120795146 -0.18377356 -0.038750462 -0.72240573 0.19162376 0.30556566 -0.104268864
0.36659995 0.26432025 -0.1688061 -0.38557285 0.51141644 0.29938832 -0.11474246 -0.46246615
-0.37503454 -0.16857928 0.26066864 0.6362673 0.27886313 -0.15054287 0.015588097 0.50571364
0.47814563 -0.37206966 -0.22011787 -0.56666106 -0.55566597 0.19933149 0.19991487 0.118786946
0.008533642 -0.24542974 -0.2702837 -0.20585863 -0.04803304 -0.10388693 -0.03279808 -0.052326616
0.19681987 0.18587726 -0.23011349 0.13850634 -0.029745357 0.4011832 -0.03825848 -0.23835619
0.49218985 0.0385242 0.16158386 -0.7953902 -0.096335866 0.34014034 0.33764645 0.6112989
00000000: 220a 633d 483f f6be fc1d f63e 5b18 313e
00000010: 9e31 3e3d c4a7 d9bd 7032 d83d 7b2c a93d
00000020: 40b4 05be d7b6 2e3e ada0 903d 199a 613f
00000030: e53e 88bd 4eac 6fbd 6ff1 bb3e f111 503e
00000040: aea1 81be 9670 bcbe 540e eabe 5964 54be
00000050: af84 3a3e 2b50 c33e 6cb4 b6be 651a 4e3f
00000060: 89d2 c03c 8c0f b13e 6fa8 ccbd 1cdc 833e
00000070: 8bea 90be 71f3 aa3e e530 97be 2f66 75be
00000080: cb8f a1bd c5df 733e 5064 a1be 8bda 293f
00000090: d352 15bd 4911 f0bc 25b6 19bd 1cc9 76bc
000000a0: 0aab 6c3e 3c53 ac3d 8627 6e3e 4bc5 013e
000000b0: f5a6 93be e75f c43e ac29 1fbe 1110 fabe
000000c0: 5018 c33e 145c 95bd 18af c2be 3038 a8be
000000d0: b32f d33d 62f1 6a3d d7be 5bbe 1c02 3e3f
000000e0: 5b52 1ebe 6f96 863e 3e02 69be 727c 3dbc
000000f0: 1758 91be 190e 2fbd 449c 963e 5b53 393e
00000100: d8ec 913e 0802 913e ffaa 593f 945e 02bf
00000110: 62cb 343e 6ce6 dcbd d6c0 8dbe d88e 053e
00000120: 8a96 153e d78f 9d3e ae24 e43e b7b5 9a3e
00000130: 9a6e 743e 8a38 0c3c 499f 173f 4741 f0be
00000140: c35d 193e 7fc2 ecbb 7111 903e 1884 4b3e
00000150: accb 803d 974b 253e 88a4 2a3e 1f22 1a3e
00000160: 01a6 8fbe 008d 853d 0c9f cc3c b747 53be
00000170: 2629 fa3b 92ee eebd fed4 70be c853 83be
00000180: 70dd c83c 30d8 16be 767a 69be a561 783e
00000190: aac4 a43e ede0 66bf 86f1 843e 697d 763d
000001a0: fe8a 8b3e cf84 cb3d fcba 783d 5186 553e
000001b0: a1bb ee3d 759d a23c f539 b13d 94ec 1abf
000001c0: dad3 1f3f 0b4e 553e f441 833e 92cb 2bbd
000001d0: bc10 863e d815 cd3d 3967 5dbe 48b6 8e3e
000001e0: e881 023e 94df 9b3e 3295 b23e 336c 20bf
000001f0: ee39 f9bc fe1a 173e af58 c83d 9fe7 013d
00000200: 4a5e 1bbe c437 4abd bc41 2c3b 415b a6bd
00000210: 3a65 1dbf 5fd6 313e dee1 1a3f 76cf 423e
00000220: aae4 85be 4889 1a3d 31fa 54be 82fa 2d3e
00000230: f74b af3b 76ee 173e 84c3 ccbe b984 e7bd
00000240: 247e ab3d fda2 da3e f20c 63bf 31e8 a7be
00000250: 547b 2a3e de18 8aba 9506 c5be 4ec5 eebe
00000260: df5f ee3d aa89 b33e 0713 92bd 2d40 c3be
00000270: e4f8 a83e 81c4 0a3d 806f b23e 8a74 b43e
00000280: 5697 4cbe d502 b0be 25e1 303d c924 323e
00000290: a562 57be 7a27 e8bd 1a63 a3be b21d f53d
000002a0: 1f51 a3be bf05 653e 35f2 b33e e279 5d3e
000002b0: 1300 f2be 1896 ab3d 3ea5 7bbe 3868 593e
000002c0: 0d20 943e cdea 0c3f c0a8 2dbe 0532 20bf
000002d0: 2f06 67bd 14fe 7fbe 1609 9bbd f895 993e
000002e0: 0c27 cc3d 8389 8b3e ae16 01bd 46d6 6d3f
000002f0: f188 0a3f 7bd0 3bbf 5db4 473d 4922 5cbe
00000300: 9252 ad3e fe28 453d 3673 3c3e dd68 d73e
00000310: f47a 91bd 9786 c33e d00a f93e 57b4 5b3f
00000320: 8bd1 eb3e 7263 f7bd 232f 3cbe ceb8 1ebd
00000330: 95ef 38bf 0539 443e 1a73 9c3e ea8a d5bd
00000340: fdb2 bb3e fc54 873e 82db 2cbe ce69 c5be
00000350: 30ec 023f 6d49 993e 18fe eabd 5dc8 ecbe
00000360: 8704 c0be 0ca0 2cbe 5c76 853e 6ae2 223f
00000370: 26c7 8e3e e927 1abe 3865 7f3c 7376 013f
00000380: 81cf f43e ea7f bebe 9466 61be b310 11bf
00000390: 2040 0ebf 8e1d 4c3e 7cb6 4c3e 9246 f33d
000003a0: b0d0 0b3c ef51 7bbe a062 8abe 9bcc 52be
000003b0: 4bbe 44bd acc2 d4bd 4857 06bd 6f54 56bd
000003c0: 268b 493e 9c56 3e3e dfa2 6bbe 9bd4 0d3e
000003d0: 89ac f3bc e267 cd3e edb4 1cbd a513 74be
000003e0: 4f00 fc3e 8dcb 1d3d 3d76 253e b19e 4bbf
000003f0: bd4b c5bd e026 ae3e ffdf ac3e 167e 1c3f

linear1.bias f4 [256]
0.014991732 0.082843356 0.16449003 -0.21648699 0.34013888 -0.11406289 -0.28307095 -0.13515738
-0.11763878 0.08280672 -0.05995179 0.0074441223 0.22555342 0.26534534 0.15007696 0.013453008
0.110949904 -0.22610672 0.051784012 -0.06620159 0.026464941 -0.34690523 0.6145103 -0.17359476
0.20309858 -0.019806826 -0.17172322 0.004418731 0.19652008 0.11526706 -0.12518907 -0.1621208
0.032690674 -0.22582367 -0.04033877 0.17945288 -0.03201408 0.55121845 -0.10622485 0.56435245
-0.07165744 0.052467 0.08791349 -0.061307717 0.116637796 0.42426628 -0.13265239 0.18040952
-0.02602894 0.32591867 0.4553435 -0.2811096 0.12195549 -0.10962097 -0.27889922 0.6143679
0.29859182 0.23296931 -0.12477598 0.012169587 -0.05505948 -0.04284461 -0.26674533 -0.009796393
0.10652554 0.32883263 -0.120323546 -0.32023433 -0.16016513 -0.14916117 -0.030426502 0.02023432
-0.10404674 0.0058320747 0.22118418 0.22503018 0.25821462 -0.11771484 -0.038703267 -0.032104436
-0.024104536 0.022883682 0.11154032 0.23414318 -0.05463234 0.112903655 -0.20301406 -0.045420375
-0.004002998 -0.25961217 0.26989406 -0.04829486 -0.054917417 -0.0552415 0.7060132 0.2742486
-0.1225002 -0.12966669 0.09078841 -0.22917087 -0.028081195 -0.17040329 0.2674792 -0.024958365
-0.09742661 0.4408781 -0.17353177 -0.37004519 0.011728802 -0.18769337 -0.13537048 -0.19193418
-0.38661292 -0.06160381 -0.07541761 0.2555016 -0.33729446 -0.36690813 -0.1277586 -0.08211494
-0.37533942 0.423051 0.044680502 0.18189025 0.0718914 0.14070314 0.10463577 0.03926704
-0.015859984 0.12596287 0.09802243 -0.13395107 0.043475874 0.11681232 0.06902219 -0.09471452
-0.10185323 -0.095187105 -0.025146203 -0.22822489 0.018646952 0.02600533 0.16915707 0.034301437
0.39036152 0.059646145 0.3046807 0.16587318 -0.21083708 0.13319537 0.1432059 0.034306888
0.17759147 -0.2612871 -0.11170517 -0.12025495 -0.13487688 -0.071463466 -0.13312767 -0.102894686
0.1984501 -0.09981159 -0.16114235 0.06579357 -0.19877362 -0.30774006 -0.025005987 -0.44212762
0.17060727 0.12916827 -0.11638617 0.025720658 -0.056060284 -0.3024717 -0.124239296 -0.13232689
0.015504414 -0.04625893 0.023351884 0.2933369 -0.042063467 -0.21794075 -0.06381482 0.41836795
-0.34976125 -0.29990673 -0.02342082 -0.17068529 0.08065239 0.33094835 -0.1883915 0.009041265
0.2754328 0.116194464 0.11779858 0.12794971 -0.24002068 0.0063906726 -0.22627354 0.1266061
-0.30021194 0.31940487 0.13610248 0.4016708 0.06726644 -0.14401305 0.0049613323 0.23863225
-0.1275722 -0.16890739 0.1970263 0.040814314 0.21926586 -0.14964601 -0.387553 -0.19144012
-0.43846396 -0.059154473 0.52411 -0.23687714 -0.071942165 -0.060181648 0.100908406 -0.06069579
0.1672811 -0.047686566 -0.118679635 -0.05256954 0.401842 0.0047987294 0.028839367 0.20790876
0.10381399 0.005009051 0.053306364 -0.021642836 0.058737118 -0.07187813 -0.24412607 -0.1452473
-0.22736219 -0.15550041 0.20677517 -0.11909491 0.16445136 0.028292395 0.11991784 0.01920921
-0.21226142 -0.035745613 -0.15352587 -0.30138713 -0.24246906 0.16866732 -0.12820743 0.060567982
00000000: e29f 753c c7a9 a93d 1370 283e c4ae 5dbe
00000010: af26 ae3e ce99 e9bd adee 90be b266 0abe
00000020: 9aec f0bd 9296 a93d 0290 75bd d3ed f33b
00000030: 7af7 663e 58db 873e c6ad 193e 016a 5c3c
00000040: b439 e33d 8588 67be 791b 543d b394 87bd
00000050: 01cd d83c 909d b1be 8c50 1d3f d3c2 31be
00000060: 13f9 4f3e ed41 a2bc 36d8 2fbe 01cb 903b
00000070: 8f3c 493e 2311 ec3d 9031 00be ff02 26be
00000080: a8e6 053d 523e 67be 443a 25bd 7fc2 373e
00000090: 3221 03bd a71c 0d3f 6a8c d9bd 6779 103f
000000a0: 23c1 92bd a3e7 563d fd0b b43d cd1d 7bbd
000000b0: ccdf ee3d 6e39 d93e 07d6 07be 46bd 383e
000000c0: a53a d5bc d0de a63e c922 e93e 99ed 8fbe
000000d0: cdc3 f93d f680 e0bd e1cb 8ebe 3747 1d3f
000000e0: 07e1 983e 828f 6e3e 8d8a ffbd f362 473c
000000f0: 0d86 61bd d47d 2fbd d892 88be 0d81 20bc
00000100: 102a da3d c05c a83e 316c f6bd c1f5 a3be
00000110: 5402 24be b5bd 18be 0041 f9bc 72c2 a53c
00000120: 7516 d5bd fd1a bf3b 1b7e 623e 506e 663e
00000130: b534 843e 7a14 f1bd 5187 1ebd f17f 03bd
00000140: e076 c5bc 8f76 bb3c 406f e43d 3bc3 6f3e
00000150: 29c6 5fbd 083a e73d ebe2 4fbe b70a 3abd
00000160: 952b 83bb e3eb 84be 8e2f 8a3e d5d0 45bd
00000170: 16f1 60bd e944 62bd 48bd 343f 506a 8c3e
00000180: 63e1 fabd 58c7 04be 46ef b93d c5ab 6abe
00000190: 890a e6bc 337e 2ebe 09f3 883e 7c75 ccbc
000001a0: 9a87 c7bd c6ba e13e 50b2 31be 9076 bdbe
000001b0: 292a 403c b132 40be 8f9e 0abe 658a 44be
000001c0: 21f2 c5be 4754 7cbd 8c74 9abd 1bd1 823e
000001d0: dcb1 acbe 62db bbbe 27d3 02be e12b a8bd
000001e0: 7d2c c0be 249a d83e e702 373d 7041 3a3e
000001f0: cc3b 933d 7c14 103e 474b d63d 7ad6 203d
00000200: ccec 81bc 69fc 003e fcbf c83d 782a 09be
00000210: c213 323d 4c3b ef3d 825b 8d3d b0f9 c1bd
00000220: 6d98 d0bd 75f1 c2bd 69ff cdbc c9b3 69be
00000230: 7ec1 983c 2109 d53c 8337 2d3e aa7f 0c3d
00000240: 77dd c73e 844f 743d 1cff 9b3e a9da 293e
00000250: ade5 57be 5e64 083e 91a4 123e 6185 0c3d
00000260: 8ada 353e 6cc7 85be aec5 e4bd 3a48 f6bd
00000270: 2a1d 0abe 705b 92bd 9f52 08be 73ba d2bd
00000280: 8136 4b3e 056a ccbd 8002 25be c7be 863d
00000290: 508b 4bbe 1b90 9dbe 5bd9 ccbc 8d5e e2be
000002a0: acb3 2e3e b044 043e df5b eebd 21b4 d23c
000002b0: 789f 65bd 92dd 9abe 2c71 febd b380 07be
000002c0: 3a06 7e3c 017a 3dbd 734c bf3c 4130 963e
000002d0: be4a 2cbd dc2b 5fbe 58b1 82bd 5334 d63e
000002e0: e813 b3be 608d 99be 05dd bfbc 20c8 2ebe
000002f0: 152d a53d 1072 a93e b4e9 40be d021 143c
00000300: 8705 8d3e 5df7 ed3d 6240 f13d 4005 033e
00000310: fbc7 75be d968 d13b 40b4 67be 08a5 013e
00000320: 61b5 99be 0989 a33e 735e 0b3e cca7 cd3e
00000330: fdc2 893d 2878 13be ac92 a23b 035c 743e
00000340: 49a2 02be 0ff6 2cbe 43c1 493e e92c 273d
00000350: 3b87 603e ce3c 19be 596d c6be e108 44be
00000360: 597e e0be f64b 72bd 132c 063f ec8f 72be
00000370: 6a56 93bd 0881 76bd 11a9 ce3d 269c 78bd
00000380: bd4b 2b3e fd52 43bd 4f0e f3bd 2853 57bd
00000390: 3cbe cd3e a93e 9d3b 8940 ec3c 09e6 543e
000003a0: 6e9c d43d f722 a43b c657 5a3d 514c b1bc
000003b0: 5596 703d d734 93bd 2ffc 79be b5bb 14be
000003c0: a2d1 68be 803b 1fbe dfbc 533e 08e8 f3bd
000003d0: f065 283e 74c5 e73c 7c97 f53d a25c 9d3c
000003e0: 0f5b 59be fe69 12bd e335 1dbe 6a4f 9abe
000003f0: cf49 78be 20b7 2c3e cf48 03be 2216 783d

linear2.weight f4 [3, 256]
0.16688609 -0.8827622 0.3915898 -0.00018448895 0.27786297 -0.27657035 -0.42496747 0.014467013
-0.075781055 0.11253816 0.09896062 0.13807093 0.46339405 0.290896 0.20421632 0.18828191
-0.17390949 -0.42400002 -0.1817878 -0.63106835 -0.30735412 0.0108200135 0.47638923 -0.3709949
0.3744354 -0.13829444 -0.13370368 -0.041343827 0.30231652 -0.7983098 -0.0018867716 0.37991968
0.26197034 -0.36428818 0.27298406 -0.40086743 0.20378707 0.28779426 -0.2174255 0.66840625
0.028079638 0.4550703 -0.2959058 -0.61919636 0.22266746 0.2465754 -0.20781583 -0.6698022
-0.39138997 0.16224545 0.5415988 0.006200549 0.19766569 0.22254544 -0.17646304 0.66939086
0.2296013 0.338685 -0.36397862 -0.10446666 -0.5104 -0.50331086 0.024334723 -0.0692477
0.6722577 -0.49981484 0.23705728 -0.044384204 -0.16857184 -0.12315296 0.2089476 0.16705814
0.2595956 -0.54177296 0.26406237 -0.4862381 0.30697352 0.24437907 -0.29160067 -0.11365581
-0.23450136 0.13972054 0.28401133 -0.041629612 -0.07239199 0.099654034 -0.4958368 -0.14437246
0.4584723 0.10789252 0.39145917 -0.28233996 -0.050709672 -0.2603793 0.28424165 0.16016456
-0.10827995 -0.3257198 -0.18199103 -0.022779481 0.3091943 0.46709675 0.08205462 0.30381256
-0.38403544 0.28491703 -0.7771393 -0.11371117 -0.066902034 0.31293058 -0.35785285 -0.009680688
0.33739337 -0.20408465 -0.28233284 -0.004562782 -0.38356745 -0.08635498 -0.28643453 -0.10043557
0.004293072 0.5088757 -0.08704161 -0.26006755 -0.21034302 0.20208502 -0.11887804 0.37699884
-0.18627809 0.2680618 -0.4759425 -0.24553333 0.10091259 0.23600674 0.29554483 -0.09531149
0.18777849 0.020824755 0.54070336 -0.14439204 -0.19961748 0.5369021 0.16972938 -0.43218657
0.37431043 0.012400391 0.47323415 -0.18463853 0.020187758 0.29389456 -0.21257527 -0.14359082
-0.04980518 0.051780373 -0.12270687 0.5373967 -0.17645967 -0.056971163 -0.13812098 -0.09713835
-0.01579462 -0.6583414 -0.4062456 -0.1829359 -0.362304 0.029585516 -0.5806527 0.44140956
0.31170928 -0.5539188 -0.062353183 -0.40115514 -0.790069 -0.11084699 -0.25583303 0.004788656
0.08283374 -0.17126514 0.12573773 0.22849335 -0.015598851 -0.20449978 -0.1543891 0.071013786
-0.08554777 0.012240318 -0.28682375 -0.7090342 0.39970213 0.39305815 -0.07163211 -0.3165049
0.37300107 0.42465943 0.027562305 -0.10049186 0.056072842 -0.18543424 0.01537177 -0.4181679
-0.55071867 0.15498804 -0.48116907 0.46517816 -0.18761805 0.008752213 -0.5722505 0.36187893
0.40918046 -0.44263926 -0.052925263 -0.054528307 0.26727572 0.55317706 0.1351052 0.059688862
0.040085733 -0.14453995 0.4237571 -0.17113762 -0.09824372 -0.26161337 -0.70372045 -0.31076756
-0.3756426 -0.19255517 0.45244718 -0.09055488 0.14904208 -0.08513741 -0.1650631 0.4527849
0.13422984 0.14562239 -0.47200722 -0.6241849 -0.16898173 0.10176513 -0.29813698 -0.23348717
-0.36847183 0.16655535 0.33134606 -0.018568171 0.13627347 -0.41276416 -0.03898989 0.01538203
-0.015125746 0.08118574 -0.22744918 -0.016422108 -0.06685066 0.28990397 0.022257809 0.0006475695
00000000: 30e4 2a3e b4fc 61bf 757e c83e 6073 41b9
00000010: 0e44 8e3e a19a 8dbe 5695 d9be 0d07 6d3c
00000020: 1933 9bbd 687a e63d deab ca3d 7762 0d3e
00000030: fc41 ed3e 52f0 943e 151e 513e f9cc 403e
00000040: 5415 32be 8816 d9be 9526 3abe b28d 21bf
00000050: 855d 9dbe 6d46 313c 4ae9 f33e 0bf3 bdbe
00000060: ffb5 bf3e 0f9d 0dbe 9ee9 08be 2558 29bd
00000070: 3bc9 9a3e 085e 4cbf 8d4d f7ba d584 c23e
00000080: fa20 863e fb83 babe 91c4 8b3e 7f3e cdbe
00000090: 8fad 503e c559 933e caa4 5ebe ac1c 2b3f
000000a0: 4507 e63c f9fe e83e f780 97be a783 1ebf
000000b0: f002 643e 437e 7c3e accd 54be 2878 2bbf
000000c0: 4464 c8be ac23 263e 38a6 0a3f fa2d cb3b
000000d0: e068 4a3e f4e2 633e bab2 34be 335d 2b3f
000000e0: 9a1c 6b3e 1f68 ad3e 685b babe 9ef2 d5bd
000000f0: 93a9 02bf fbd8 00bf 9d59 c73c bdd1 8dbd
00000100: 1519 2c3f bbe7 ffbe 25bf 723e 36cc 35bd
00000110: 199e 2cbe 9e37 fcbd 5cf6 553e 4a11 2b3e
00000120: b7e9 843e a2b1 0abf 2f33 873e 33f4 f8be
00000130: a22b 9d3e 823e 7a3e af4c 95be 61c4 e8bd
00000140: 2021 70be e712 0f3e ef69 913e d083 2abd
00000150: 4042 94bd 6a17 cc3d 52de fdbe 60d6 13be
00000160: e2bc ea3e c1f6 dc3d 566d c83e dd8e 90be
00000170: f2b4 4fbd 7050 85be 1f88 913e 2e02 243e
00000180: e1c1 ddbd bfc4 a6be db5b 3abe 099c babc
00000190: b74e 9e3e 4e27 ef3e 410c a83d 528d 9b3e
000001a0: 4ba0 c4be a5e0 913e 9af2 46bf 67e1 e8bd
000001b0: ef03 89bd 7038 a03e 7d38 b7be c09b 1ebc
000001c0: d3be ac3e 91fb 50be ee8d 90be 6483 95bb
000001d0: f462 c4be e1da b0bd 8ca7 92be 2ab1 cdbd
000001e0: e6ac 8c3b ae45 023f df42 b2bd 9327 85be
000001f0: 2964 57be 60ef 4e3e 5476 f3bd fe05 c13e
00000200: afbf 3ebe 653f 893e bcae f3be 176d 7bbe
00000210: 43ab ce3d c0ab 713e a751 973e ac32 c3bd
00000220: 0149 403e ad98 aa3c 896b 0a3f 82db 13be
00000230: 8668 4cbe 6b72 093f 8acd 2d3e 8f47 ddbe
00000240: 9ea5 bf3e 022b 4b3c bf4b f23e e211 3dbe
00000250: cc60 a53c 5979 963e 55ad 59be 7909 13be
00000260: 8400 4cbd a817 543d bd4d fbbd d592 093f
00000270: d8b1 34be 985a 69bd 966f 0dbe 79f0 c6bd
00000280: b863 81bc 1089 28bf 6cff cfbe 8c53 3bbe
00000290: e97f b9be 535d f23c a8a5 14bf 6f00 e23e
000002a0: 5c98 9f3e 9fcd 0dbf 0d66 7fbd 3564 cdbe
000002b0: f641 4abf bf03 e3bd 8cfc 82be 28ea 9c3b
000002c0: bca4 a93d 2160 2fbe 64c1 003e 29fa 693e
000002d0: 5392 7fbc 6468 51be 2d18 1ebe ad6f 913d
000002e0: ab33 afbd 9d8b 483c 90da 92be 4483 35bf
000002f0: c2a5 cc3e eb3e c93e dbb3 92bd ee0c a2be
00000300: fff9 be3e f66c d93e 58ca e13c adce cdbd
00000310: a3ac 653d 79e2 3dbe e0d9 7b3c 1a1a d6be
00000320: e6fb 0cbf 2fb5 1e3e cb5b f6be d52b ee3e
00000330: f21e 40be 7165 0f3c 027f 12bf 3248 b93e
00000340: 1a80 d13e 9da1 e2be 29c8 58bd 1359 5fbd
00000350: 5dd8 883e 039d 0d3f 0459 0a3e 4f7c 743d
00000360: f030 243d 4802 14be b1f6 d83e b33e 2fbe
00000370: 0134 c9bd 30f2 85be 0627 34bf ed1c 9fbe
00000380: 3a54 c0be 2f2d 45be 28a7 e73e d674 b9bd
00000390: 7d9e 183e 865c aebd 4d06 29be 6cd3 e73e
000003a0: 8c73 093e 091e 153e eeaa f1be 95ca 1fbf
000003b0: 8c09 2dbe 3d6a d03d 69a5 98be 4317 6fbe
000003c0: 57a8 bcbe 7c8d 2a3e 31a6 a93e 471c 98bc
000003d0: 468b 0b3e d355 d3be ddb3 1fbd e904 7c3c
000003e0: fad1 77bc b644 a63d 70e8 68be a887 86bc
000003f0: 00e9 88bd 4b6e 943e 0256 b63c a7c1 293a

linear2.bias f4 [3]
0.049334764 -0.11787249 -0.12778763
00000000: 4013 4a3d 2267 f1bd c3da 02be
