model/model.pth (torch, 17216 bytes, 4 tensors)

linear1.weight f4 [256, 11]
00000000: 13b4 973e 700a 39bf ea90 9e3e e892 4abe
00000010: e71c 99be faaf 3ebd 92b8 c5bd ced8 bc3e
00000020: ee8c 8f3e 1960 743e 3d25 8a3e 54f4 703d
00000030: d0d4 1abf eea6 81be 2012 d43e 0cc1 09bf
00000040: 0ff7 643e c78b a5be eb71 3c3e 05d3 e7be
00000050: 03fc 1ebe 05ab 91be b5fc 383e 386c febd
00000060: a381 553d 3884 98be 198c e03e 7c6a 3ebe
00000070: d43f 403d f213 993e ca25 a1be f65c 98be
00000080: 1936 2e3e 43a4 98be 5a32 9f3d e354 783e
00000090: 716e 083e 76da 573e 45db 11bf ed00 bbbe
000000a0: 157a d43e 94c3 bf3e 5793 b2be 1317 8abe
000000b0: 6ad0 d2be 9f27 c6bd d887 5abc 5f99 b93e
000000c0: 2cec ccbe 941e a23d 2056 c7be f955 7b3e
000000d0: 4aff 7cbe ec47 0dbf 9f2f 38be 0cb0 1a3c
000000e0: 75f7 22be bde7 8ebe 6295 70be 3676 093e
000000f0: a582 7fbe 78cd a63d 5b80 72be fd27 90be
00000100: 03ea 81be 70a7 20be 3ee0 cb3c dde4 053f
00000110: 146a dbbe 6daa 4ebe 2f99 a73e 5dd8 a63d
00000120: 682d c63e ff72 d0be bc71 323d baf9 f43d
00000130: 6ccf b7bd d2b8 873d 099a 823e 82c4 3e3d
00000140: 534c b7be 3a6c 95be dd6e 1f3e 1c21 c83e
00000150: c1c1 d1be 4f9e 5abe bb88 01bf 6eda 813e
00000160: 4e4e 183e e9ad 1cbf e254 0a3f 4319 61be
00000170: a583 163e dbe8 a1be 7420 cd3b c481 c73d
00000180: 16a1 323b c16b 87be b1bc 1f3e b0fd 2bbe
00000190: 7b41 093f a2c8 b1bb 26dd 01be 9d3c 673e
000001a0: 923f 89be a4b6 a53d b565 b4be a2b3 c2bc
000001b0: 64c9 24be bdb2 013e d902 f0be 56d0 b93e
000001c0: e8e1 a6bd 2915 a13d 70b4 32bb 5dc6 3c3e
000001d0: 1c64 35be 6270 e8be 8beb a43e e87b 563e
000001e0: 3b6e 69be 306d a93e 68e9 413e cb10 fb3e
000001f0: 2b28 00be 5034 b0bd f461 7dbd 5142 88be
00000200: ec2b cd3e c984 ee3e 1fd5 c23e 1822 d53e
00000210: 27bc ac3e f931 db3e 9cff 0fbf 7693 acbe
00000220: dca6 3e3e 4cc1 e33d faae 933d 7635 3b3d
00000230: 6b01 4c3d 7729 b4bc 570f 79be 0da5 abbe
00000240: 7e28 4cbe 7d7a a9be 917c 32be 17ee bb3e
00000250: f59f 0ebf cb59 183e aa56 1ebf 4c98 1a3d
00000260: 1d3f 1abe 9a68 893e c69e a7bd 4051 513e
00000270: fccd b23e 9e90 83be 4d32 0cbd 6ab0 adbd
00000280: 3ff6 04be e680 c23d dd28 b63e cc30 3f3c
00000290: aeb7 623e d8e4 adbe 005a 283f 4db4 b5bd
000002a0: 780d 6ebe bfa2 84be ada9 33be 7551 8cbd
000002b0: c1e5 ab3e 8e99 8f3e d602 b63e e340 a93e
000002c0: 9b83 f43e 6f7b a73e decc 1dbf 0ebd 753d
000002d0: e697 2d3e 3f68 cb3e 67c3 3c3e 7098 633e
000002e0: 1b5d 1c3e fa35 0dbe 3add bb3d 4005 d7bd
000002f0: d82e 96be 75ab 943d 738f 893d d2ca 7cbe
00000300: 3b5f d73d 7db7 43be 9b27 e53d a60b 45be
00000310: 0257 25bd d1cd 04bb d118 e4bb 6750 00bf
00000320: 7329 6c3c 9db4 6abe 469b 41be 3d2c d6bd
00000330: 293e 47be 73ae 9c3e 239d a43e 55cb 963e
00000340: ba8c a53e 839f 42be a5fd f3bd bb49 083f
00000350: b535 a6be fa2c 073d 17af 903e 7d22 a83d
00000360: ca59 c0be 4d02 833e 2368 2b3e 7a84 8b3e
00000370: 3676 fe3e cc52 713d 6306 6fbe f0a3 863e
00000380: 462b 6fbe 38d2 c83d 2779 80bd 2828 75be
00000390: a068 e7bd ec11 68be ece8 2b3e 2c38 fdbb
000003a0: 3fbf bebe c01f c2be f339 9bbe b01e cf3e
000003b0: 205c 0dbd 937a a3be 3983 c6be 6280 833e
000003c0: ff19 dbbe f025 8c3c eaea 6ebe cbd7 a63d
000003d0: fd6a d2be d3c3 d7be 3294 87be 24ed 09be
000003e0: 1892 823e 71db d43d 7fda 163c c195 fcbd
000003f0: b0d2 23bf 1c8e 7c3e 5ee8 cdbe e381 41be
0.29629573 -0.7228155 0.30969936 -0.19782603 -0.29904863 -0.046554543 -0.096543446 0.3688416
0.28037208 0.23864783 0.26981536 0.05882676 -0.60480976 -0.2532267 0.41420078 -0.5381019
0.2235987 -0.32333204 0.18402831 -0.45278183 -0.15525822 -0.2845079 0.1806515 -0.12422985
0.052125584 -0.29788375 0.43856886 -0.18595308 0.04693587 0.2989803 -0.31474143 -0.29758424
0.17012824 -0.29812822 0.07773276 0.24251132 0.1332338 0.2107943 -0.56975204 -0.36524144
0.4149939 0.37453902 -0.34878036 -0.2697073 -0.41174632 -0.09675526 -0.013338052 0.36249825
-0.40023935 0.079159886 -0.38932896 0.24544515 -0.2470676 -0.5518787 -0.17986916 0.009441387
-0.1591471 -0.27911177 -0.23494485 0.13424 -0.2495218 0.08144659 -0.23681776 -0.2815551
-0.2537385 -0.15688872 0.0248872 0.5230234 -0.4285437 -0.201822 0.32734057 0.08146737
0.38706517 -0.40712735 0.043565497 0.11961694 -0.089751095 0.066270486 0.25508144 0.046574123
-0.35800418 -0.29184133 0.15569635 0.3908776 -0.40968135 -0.21349452 -0.5059926 0.2536196
0.14873621 -0.61202866 0.5403577 -0.21982293 0.14698656 -0.31622967 0.006259972 0.09741548
0.002725666 -0.26449397 0.15599324 -0.16795993 0.5361554 -0.0054255286 -0.12682018 0.22581716
-0.26806313 0.080914766 -0.35233846 -0.023767296 -0.1609245 0.1266584 -0.46877173 0.3629176
-0.08148557 0.07865364 -0.0027268194 0.18435045 -0.1771397 -0.4539824 0.32210955 0.20945704
-0.22795956 0.33091116 0.18936694 0.4903625 -0.12515323 -0.08603728 -0.061860994 -0.26613095
0.40072572 0.46585682 0.38053223 0.41627574 0.337373 0.42811564 -0.56249404 -0.33706254
0.1861834 0.11120853 0.072111085 0.04570528 0.04980604 -0.021992428 -0.24322258 -0.3352436
-0.19937322 -0.33101264 -0.17430331 0.36705086 -0.55712825 0.14878003 -0.6185099 0.037742898
-0.15063138 0.26837617 -0.081845805 0.2044115 0.3492278 -0.25696272 -0.034227658 -0.08480914
-0.1298456 0.09497242 0.3557805 0.011669349 0.2214038 -0.33963656 0.6576233 -0.0887228
-0.23247325 -0.25905415 -0.17545195 -0.06851474 0.33573726 0.2804684 0.3554904 0.33057317
0.47756657 0.3271136 -0.6164073 0.05999475 0.16952476 0.3972797 0.18433915 0.22226119
0.15269892 -0.13790122 0.09173055 -0.10499048 -0.29332614 0.07259265 0.06716814 -0.24686745
0.10516211 -0.19112964 0.11189195 -0.19242725 -0.04036618 -0.0020264278 -0.006960966 -0.50122684
0.014414179 -0.22920461 -0.18906888 -0.104576565 -0.19457306 0.30601844 0.32151136 0.29452005
0.32333928 -0.19006161 -0.11913613 0.53237504 -0.3246285 0.033001877 0.28258583 0.08209703
-0.37568504 0.25587693 0.16738944 0.2724951 0.49699563 0.058916852 -0.2334228 0.2629695
-0.23356351 0.09805721 -0.06273108 -0.239411 -0.112992525 -0.22663087 0.16788071 -0.0077276435
-0.37255284 -0.37914848 -0.3031765 0.404531 -0.034511685 -0.31929454 -0.3877199 0.25683886
-0.4279327 0.017107934 -0.233318 0.08146628 -0.4109725 -0.4214159 -0.26480252 -0.13469368
0.25502086 0.103934176 0.009207367 -0.12333251 -0.6399336 0.24663585 -0.40216345 -0.18897204

linear1.bias f4 [256]
00000000: b3ca 2abe 32f1 db3e b283 6bbe 2ea9 bc3d
00000010: f8fa f43d b134 90be 335c d13c 04c4 6cbe
00000020: 454f 9c3d a917 8e3e c731 81be 995b b6be
00000030: 90e5 033e d928 c63e 75cb 85bd 9c7b 10be
00000040: 0f2a 9fbe 981e aabe 0dd3 1ebe d08c 7f3d
00000050: b76f 5ebe 7cf0 293d 7b73 963e 1698 1d3d
00000060: 5ab1 86be 27c7 803e dd17 a6bd 48f9 28bd
00000070: fbf2 803e 1f31 35be 9eca 46bd 7850 8ebe
00000080: 1e11 adbd 13d2 eebe 0f00 1fbe fcc8 bfbc
00000090: e544 63bc cbeb f0bd 5134 1d3e 210b 6fbe
000000a0: fb1f 64be 4c7c 29be 85bd a1be 3548 66bd
000000b0: a7b1 52be 952e 09be 21e8 96be 5260 743e
000000c0: 38ab 1bbe 9425 5abd 6797 75be 0ed8 56be
000000d0: c7fd d5bc dd22 7cbd 022c c3bd 4778 a7be
000000e0: 9031 d3bd 2126 d4bd eb94 c5bd e863 8dbe
000000f0: 3059 debd f957 81be 26a2 e3bc b22f 4f3d
00000100: 6d92 49be 1846 76bd 4196 fe3d e87f 39be
00000110: 7908 113f 425d afbe 0151 863d 5b19 c93e
00000120: e878 493f 424d a0bd 1922 45be 081f 663d
00000130: f87e 5fbe 6ee6 a9be bdd6 05bd 01e9 9abe
00000140: a89f c23d c0a1 68be 8f25 ebba 5b9d b3bd
00000150: 67a9 51be c4d5 223d 814e acbd a9eb cbbe
00000160: d0a9 6fbe e171 86be d860 8ebd 7a86 b53d
00000170: 431d 8ebe 1bff 73be 64dc a8be cbde 52be
00000180: 129e c53b d310 6f3e 7bda 9fbe 0df0 3f3e
00000190: 5dfe 99be 000f 16be dcac 2f3e 7685 b7be
000001a0: 4414 ee3d 9ae7 88be 489a 5ebe e457 42bd
000001b0: 3611 d63e 2b90 263e 6f5e cbbe 34c0 993e
000001c0: ff3b 01be ca2f 9abe 9f41 0f3e c6ed 52be
000001d0: b62e b33e c7ec 95be 1621 ccbd 2c42 b2be
000001e0: 5ec6 35be a084 7bbe 42b4 80be 4514 80bd
000001f0: d835 09be 0ee4 823e 48e2 22bd 19a2 c7bd
00000200: 1753 1f3d 8940 6b3e cda1 19be 5016 14bd
00000210: 1dfc 65bd 04c9 37bd 4575 4ebe dc01 74be
00000220: 0d7b 873d b4fb 35be 7569 c63e 67b7 ea3d
00000230: 3a33 c63d 6dc9 b43e f5a3 a33d c8dc c6bd
00000240: e3e8 6e3d 33b4 333e ab2a 84be 8d59 803e
00000250: e707 723e dcb0 f53e 05b2 943d 4a0b 4d3d
00000260: 6d28 ef3d b398 a1be 9a09 c4be 6dab a5be
00000270: 8abf 9cbe cd92 93be 4911 423e b433 b5be
00000280: ac96 05be e141 f73e 8b5c 063e dde1 5b3e
00000290: 835f 96be 26dd 11be 94f3 75be f936 a5be
000002a0: 76a7 33bd 122d f83d 2e5c 7ebe c42b 24be
000002b0: 5260 bdbd 7db2 4ebe be18 b7be 57eb 15ba
000002c0: 7ff3 b73e 8e19 a0be c9ce 55be 3112 4abe
000002d0: 560f 003e 16b5 a7bd a669 2c3e ef09 79be
000002e0: 3cf0 09be 8f9b 81be a0b8 42be e57b 52be
000002f0: 9584 24be fb6f 0c3f 3cf2 c2be 37f6 8a3a
00000300: 8a42 63be 7b1e 57bd cb5d 84be d191 c4be
00000310: bbfb 483e 514b b3bd 44c8 31bd 867d 1a3b
00000320: d3b6 4b3c 7233 98be 1bcf c8be 8c3a aebd
00000330: 4385 64bd 0f50 b1bc 43a0 49bd 091b 253c
00000340: 5e3d 66be d24a 1fbe cd4f 6abe 5bb8 6bbe
00000350: 8508 a43d 69de b0bd 2529 3abe 26d1 1abe
00000360: 1057 10be 7252 9bbe 1bf8 d3bd 77dd 7cbd
00000370: d1e0 983e 7a84 81be 7a7c 0c3d 6dc1 19bd
00000380: 1c8e 62be d31a 4abe 085f cebd 9510 1cbe
00000390: 5783 4d3f d4bb 0fbe ebc1 863e b2b3 45be
000003a0: a9db a2be 03a2 8e3e da7a 6e3d 058f d7bd
000003b0: 25f6 0b3f de48 843e 7296 20be 6370 f9bd
000003c0: b2ff 6f3e e022 46be d14e 86be 229a 15bd
000003d0: 0607 6fbd 5805 b93e a2f3 06be 0d7c babc
000003e0: cef4 9cbc 0eba 9e3c eedd 563c 1a13 55be
000003f0: 40f1 05be 0049 e23d 0fea 0ebe ea5a 84be
-0.16678886 0.42957455 -0.22999457 0.09211956 0.11961931 -0.281652 0.02555666 -0.23121649
0.07632307 0.27752426 -0.2523329 -0.35616758 0.1288054 0.3870304 -0.06532947 -0.14109653
-0.31086776 -0.33226466 -0.15510197 0.06239015 -0.21722303 0.04148911 0.2938498 0.03847512
-0.26307184 0.2515194 -0.0811002 -0.041253358 0.2518538 -0.1769452 -0.048533075 -0.27795768
-0.084505305 -0.4664465 -0.15527366 -0.023411267 -0.013871406 -0.11763724 0.15351988 -0.23344089
-0.22277825 -0.16551322 -0.31589904 -0.056221206 -0.20575581 -0.13396676 -0.29473975 0.23864868
-0.15202034 -0.053258494 -0.23983537 -0.20980856 -0.026121987 -0.061556686 -0.09529878 -0.32708952
-0.10312188 -0.10358835 -0.096475445 -0.27615285 -0.10856855 -0.2526243 -0.02778728 0.050582595
-0.19684763 -0.06012544 0.124310024 -0.18115199 0.56653553 -0.34250838 0.06558419 0.39277157
0.78700113 -0.07827236 -0.19251288 0.056181937 -0.21825778 -0.33183616 -0.032675494 -0.30255893
0.09503108 -0.22717953 -0.001794027 -0.087702475 -0.20474778 0.039754644 -0.08413411 -0.39828232
-0.23404622 -0.26258758 -0.06952065 0.0886354 -0.277567 -0.23827784 -0.32980645 -0.20592801
0.0060308063 0.23346262 -0.31221375 0.18743916 -0.30076876 -0.1465416 0.17155784 -0.3584401
0.11624959 -0.26739198 -0.21738541 -0.0474471 0.41810006 0.16265933 -0.39720485 0.30029452
-0.12620543 -0.30114585 0.13989876 -0.20598516 0.34996575 -0.2928221 -0.09967248 -0.3481611
-0.17751452 -0.24562311 -0.25137526 -0.06253866 -0.13399446 0.25564617 -0.03976658 -0.097477145
0.0388976 0.22973837 -0.15003128 -0.03615409 -0.056148637 -0.044869438 -0.20161922 -0.23828834
0.06615267 -0.17771798 0.38752332 0.114607625 0.096777394 0.35309926 0.07990257 -0.097100794
0.058327567 0.1754921 -0.25813803 0.25068322 0.23635827 0.47986495 0.07260517 0.050059594
0.116776325 -0.31561813 -0.38288575 -0.3235735 -0.30614883 -0.28822938 0.18951906 -0.3539101
-0.13045758 0.4829245 0.1312124 0.21472879 -0.29369745 -0.14244518 -0.24018699 -0.32268503
-0.043860875 0.121179715 -0.24839851 -0.1603232 -0.09246887 -0.20185275 -0.35761064 -0.00057189673
0.3592796 -0.31269497 -0.20879664 -0.19733502 0.1250585 -0.08188836 0.16837177 -0.24320196
-0.13470548 -0.25313994 -0.19015741 -0.20555075 -0.16066201 0.5485837 -0.38075435 0.0010601942
-0.22193351 -0.052519303 -0.25852808 -0.383925 0.19627278 -0.087546 -0.04340388 0.0023573353
0.012433725 -0.2972675 -0.3922051 -0.08507261 -0.05579115 -0.02164462 -0.049225103 0.010077246
-0.22484347 -0.15555885 -0.22882004 -0.23019545 0.080094375 -0.08636171 -0.18179758 -0.15118846
-0.14095712 -0.30336338 -0.10350057 -0.061734643 0.2985902 -0.25296384 0.034298398 -0.03753798
-0.22124523 -0.19736795 -0.100767195 -0.152407 0.80278534 -0.14036494 0.26319823 -0.1930683
-0.31808212 0.2785798 0.05822263 -0.10525326 0.5467246 0.25836843 -0.1568239 -0.12179639
0.23437384 -0.19349241 -0.26232007 -0.036523946 -0.058356307 0.3613689 -0.13178876 -0.02276423
-0.0191597 0.019375827 0.013114436 -0.20808068 -0.13080311 0.1104908 -0.13956474 -0.25850612

linear2.weight f4 [3, 256]
00000000: 57ae 56be 6d74 dd3e 9ae6 46be 9aae c33e
00000010: 5faa 833e aeef 643d a383 703e bee7 b03e
00000020: 5bfb fd3d 07be 853e 2225 6d3d 7d7a 88be
00000030: 06aa 7b3d 5b0b ba3e 70a5 45bc 406e 01be
00000040: 888a 05be 08c7 683c 1fbb 4dbe f676 463e
00000050: 5054 52bc bbe9 4b3e f3f7 18bf 11ea c83e
00000060: 6463 383c 463a 863e 3475 4dbd 7662 0c3d
00000070: 5e75 a03e 3d2a da3d 563a 4ebe a36c 1abe
00000080: 8cae d4bc 4090 38be 478b 413e d870 68be
00000090: 446f 72bd 4a8a 793c 20aa 323d 94f5 2d3e
000000a0: f245 b3be a7e4 9bbd ba9a 9dbd 9c88 85be
000000b0: 846a ddbc 80de 10bd 6be1 b4bd 2555 453e
000000c0: f9b7 84be 95ab 9fbe c057 e2bb f138 6cbe
000000d0: c806 4e3d a1e0 f6be d08b d43d 5e5c 4abd
000000e0: 7d8a 6fbd f5da 3a3d a11f 563e fb38 00be
000000f0: de5b b4bc 0da1 8fbe 5475 42bd 02be 223e
00000100: 5998 21be e400 303d 0555 02bf 8a47 12bd
00000110: 484e d23e afb5 003d 6486 d7bd f444 f63e
00000120: 9153 bb3e f78f 2ebe b1dd d6be 19f2 a9bd
00000130: deac eebe 0464 88bd 22f0 e7be f3e9 0fbe
00000140: 8c61 d5be 4b3d 96bd 8ec7 283e d5a4 dbbd
00000150: c7c1 97be 640f 80be 95d7 26be 8ca9 abbe
00000160: 266f 1fbe 5338 a3be c7c2 b8be 9590 d6be
00000170: 7d82 793d 6cb8 e3be be74 8cbc 6736 04bd
00000180: 10ca 8dbd 1c04 433e 4232 70be 1ff3 2f3e
00000190: 3986 81ba 51ae 14be 3a32 97be 86bb bebe
000001a0: 9733 f03e 768a 6ebd 0101 31be 78d1 cf3d
000001b0: f8a2 393e 774f af3e e8ca 8abc 3654 8a3e
000001c0: 1f9c bcbd 81ef 5abe eaa4 e33e a213 8c3a
000001d0: a73d ad3e 9a2c c63c 58a8 49be 5b95 013e
000001e0: 0f94 07be 2f98 08bd 611e b63c f364 f93e
000001f0: bfb9 e5bd b439 e03e f271 2ebf 4a0c 5f3e
00000200: be9f bbbd 03da e53e 59a8 edba 7089 3bbd
00000210: cb3c dc3e c4f5 9e3e cade bdbe a002 c6be
00000220: f6eb aa3d d970 72bc 77a4 f93e e881 d43d
00000230: c221 a6bd 5c54 853e e8fa 28bd af29 4a3e
00000240: 2b63 a73e 2c51 e83d ff5a 27be dfec 42be
00000250: 67fb cb3e c49c cc3e 2c53 c53e 93b2 cb3d
00000260: 6e37 3d3d 6226 2abe 5ba6 3dbe 9d2e 35be
00000270: 0548 4a3e 50bb abbb 6b86 dd3e 8fda 94be
00000280: a69f 54be 8bc6 e93e 32e6 b1bd 1ca9 893e
00000290: 0492 9739 1413 3bbe 5f7b 9dbe e643 d4bc
000002a0: 6eda 513d 4ffb 153e 1d13 c4be dd34 cabe
000002b0: 8a84 253e ccc0 a3bd d33d 89be 093d 25be
000002c0: 31d3 4f3e 4dfc 77bd 8fe2 af3b 2564 24be
000002d0: f163 9e3d ae7c d23c eff8 063f 8244 2abe
000002e0: 458b 67bc f04d 243d 444e 68bd 325e cfbd
000002f0: 5bf2 553d 87f5 973e fa08 c03c 7963 bdbd
00000300: 4e13 40be 649e a23c 504a c7be f0db c4be
00000310: b0c7 803e c6a3 97be 88d7 efbe f139 ad3c
00000320: 2051 1ebf 00fa 36bd 9e9b 23be a550 af3e
00000330: 14cc d33c aebf 51bf af41 99bd b56d 17be
00000340: 266c bcbd 71e2 033e ec27 23be d699 ebbd
00000350: 2596 8abe 5b42 a13e 2faf c93c d671 c0bd
00000360: 8712 053e 0d0c e2bd d050 2ebf 5116 06bc
00000370: 7739 123e 2789 d8be d938 2dbf 6d46 7ebc
00000380: 683f 93be 1431 d03e f627 0dbf 7b4e a03e
00000390: 6427 863e 7405 c4be e24c bc3e 68d9 94be
000003a0: 3536 8dbe 2f62 b9be b2fd db3c 5b2f 2ebe
000003b0: d385 0d3f 7643 3f3e e33b 20bd 0d2d b2bd
000003c0: b807 f13e 679d 18be 48bb d43d 419b aabd
000003d0: 390e b83e 3742 323e bb8c ddbe cab2 ef3d
000003e0: 734e 00bf 7c02 6c3e ab45 c13e f797 66be
000003f0: 53e4 c6ba df32 72be a76b 83be 72b9 fabc
-0.20964943 0.43252888 -0.19423905 0.38219148 0.2571592 0.05589264 0.23487715 0.34551805
0.12401458 0.26121542 0.05789674 -0.2665595 0.061441444 0.3633679 -0.012063369 -0.12639713
-0.13041127 0.014207609 -0.20090912 0.19381317 -0.0128374845 0.1991338 -0.5975334 0.39241078
0.011254165 0.26216334 -0.0501606 0.034273587 0.31339544 0.106525876 -0.20139441 -0.15080504
-0.025962137 -0.18023777 0.18900786 -0.22699296 -0.059188142 0.015230725 0.043619275 0.16988212
-0.35014302 -0.07611971 -0.076955274 -0.26080787 -0.02702833 -0.035368443 -0.088320576 0.19270761
-0.2592161 -0.31185594 -0.0069074333 -0.23068596 0.050299436 -0.48218253 0.103782296 -0.049404494
-0.058481682 0.04561897 0.20910503 -0.12521736 -0.022016462 -0.2805256 -0.047475174 0.15892795
-0.15780772 0.0429696 -0.5091098 -0.035712756 0.4107535 0.031423267 -0.1052368 0.48099482
0.36587194 -0.17047106 -0.41966012 -0.082981296 -0.46616262 -0.066597015 -0.45300394 -0.14054088
-0.41675985 -0.073359095 0.16482374 -0.107247986 -0.29640028 -0.25011742 -0.16293176 -0.33527792
-0.15569744 -0.3187891 -0.36086103 -0.41907182 0.06091546 -0.4447664 -0.01714551 -0.032278445
-0.06923306 0.19044536 -0.23456672 0.17182587 -0.000988192 -0.14519621 -0.29530507 -0.37252444
0.4691436 -0.058237515 -0.17285539 0.10147375 0.18128574 0.34240314 -0.016942456 0.27017373
-0.09209465 -0.21380426 0.44461757 0.0010687003 0.338361 0.02419119 -0.19693124 0.12654631
-0.13240074 -0.03334826 0.022231283 0.4870983 -0.11217069 0.43794024 -0.68142617 0.21782032
-0.09161328 0.44892892 -0.0018131837 -0.045785367 0.4301513 0.3104688 -0.37084037 -0.38673878
0.08345787 -0.014797413 0.4875829 0.1037634 -0.081119075 0.26040924 -0.041254908 0.19742464
0.32692847 0.11343607 -0.16343306 -0.19035672 0.39840242 0.39963353 0.38540018 0.0994617
0.04619544 -0.16616204 -0.18520491 -0.17693563 0.19754036 -0.0052408352 0.43266615 -0.29072997
-0.20764026 0.4565929 -0.086864844 0.26886833 0.00028909754 -0.18268996 -0.30758187 -0.025911283
0.0512337 0.14646648 -0.38295832 -0.39493456 0.16163841 -0.079957575 -0.2680498 -0.16136564
0.20295407 -0.060543347 0.005367584 -0.16053827 0.07733906 0.025694218 0.5272359 -0.16627696
-0.014132326 0.04011339 -0.056715265 -0.10125388 0.05223308 0.2967951 0.02344178 -0.092474885
-0.18757364 0.019850917 -0.38923883 -0.3844905 0.2515235 -0.29617137 -0.46844125 0.021145793
-0.61842537 -0.044672012 -0.15977332 0.34241214 0.025854148 -0.81933105 -0.07483231 -0.14787944
-0.09200315 0.1287935 -0.15933198 -0.11503951 -0.27067676 0.31495938 0.024619667 -0.093967125
0.12995349 -0.11037455 -0.6809206 -0.008184032 0.14279734 -0.4229214 -0.6766487 -0.0155197205
-0.28759313 0.40662444 -0.551391 0.31309876 0.26201928 -0.3828541 0.36777407 -0.29072118
-0.2758042 -0.3620772 0.02685437 -0.17010252 0.55282325 0.18678078 -0.039119612 -0.08699999
0.470762 -0.14903794 0.103872836 -0.083303936 0.3594835 0.17408071 -0.4327143 0.11704023
-0.50119704 0.23047823 0.37748465 -0.22518907 -0.0015174247 -0.23652218 -0.2566807 -0.030606005

linear2.bias f4 [3]
00000000: 61e4 7d3e 5214 6f3d 3543 783d
0.24794151 0.05836899 0.06061097
