Rede Neural/model/model.pth (torch, 17216 bytes, 4 tensors)

linear1.weight f4 [256, 11]
00000000: 577a 0ebe 4407 163e 557a 99be c92f 8e3d
00000010: cc3f 963d e5ef 1c3e 7664 8ebe 9215 cabe
00000020: 76f3 38be a598 3ebe 43c5 ddbe 70cd c63e
00000030: 02ac 173f e48c 523e 4356 63be 46cd 9cbd
00000040: b273 653e 0b97 15bb df72 11be 9c53 7bbe
00000050: 24fc f33c 0963 f0bd 3f67 023e 23ef 0f3f
00000060: 4385 9bbe b137 80be 25fd 713e bc11 d33e
00000070: 7f56 90be 93a4 2abe 7743 9cbe 2aa7 5a3e
00000080: 7cef 5bbe 26ee d3be f72b 17bf 13ad b23e
00000090: 05e9 c03e ec71 bcbe aada 29bd d35e b63e
000000a0: 05bc 973d 2113 c9be e6ec 733d 0209 11be
000000b0: 1b0b b0be 2782 833c 191f 8a3e 6aab 34be
000000c0: f94e 713d adfc 713e 8548 9c3e dad8 d3be
000000d0: 94ac f3be b67a dc3d 8b79 003e 4428 ec3b
000000e0: 6efb d43e 65e2 19be 2f09 a0bd f3bf b3bd
000000f0: e1df 11be 01eb 3ebd 6377 51be 4a4c bb3d
00000100: 1e06 8abe 23a4 603d 15c9 e43d 126e 30be
00000110: 3c0a 833e fee9 98be fa3d 79bd bf50 45be
00000120: 6bc5 603d a046 913e 37a6 8ebd fbaf 0dbe
00000130: 2752 f3be f310 29bf b20f 12bf d593 bebb
00000140: d39f db3d bc02 773e 0e6f f53b 9393 67be
00000150: 9f46 e6bd 805f 083e 6d56 f8bd e573 18be
00000160: d27d de3d 2243 8d3e d4b2 c1be 1bb2 53be
00000170: ffe2 6cbe 3f0d 7a3d 72a8 c0bc 37df 8d3e
00000180: 100a 0d3e d982 d53e 144b 333e c70e eb3d
00000190: 9dc7 48bf 3d11 dc3e 06b3 943e ea45 93be
000001a0: 599c 543d 1417 8e3e 5e3a 1fbe 0df5 b93d
000001b0: e5ea c73c 1d35 f4be 28a9 f2bc 75e9 ebbd
000001c0: f552 c4bd 254b abbe 870c ef3e b06d a1be
000001d0: 9729 aebe ab0f bfbe 9038 b33e d004 ddbe
000001e0: d9e9 29bf d387 bebe d594 b43e 3753 c63e
000001f0: 75c8 afbe fe19 d1bd e92c da3c 0626 2cbe
00000200: afd9 533e e119 103e 9959 8b3e a5b1 aa3e
00000210: 5bbe 0f3d ad11 6b3e da30 8f3e 68d6 b7be
00000220: 9368 933d c1c4 a33d 3ea0 c83c 30f0 0d3f
00000230: d8a7 ce3d dc46 313e 365d 053f a392 c5be
00000240: 4e9f cb3d b934 46be 0399 6fbe 5dbc 4fbe
00000250: 1f85 9f3e 215b dc3e 30b3 21bf 7540 26bf
00000260: 10c3 a339 67bc 28be b5ea aa3d cf4c 2fbe
00000270: 3185 933d 559d 99be 2f57 3a3e 7fa1 e33d
00000280: 9383 c0bc 4087 0e3f 4d0f 9e3d 8ac5 8c3e
00000290: c262 df3e d978 da3e 205f 883e c67b 883e
000002a0: f2c8 e13d e8a3 acbe 8699 ebbd 2f02 41bb
000002b0: 0da9 083d 4279 1e3f b36f d33e fe67 203f
000002c0: da5a 833e 303c fabe 55cf b03d 6c2c 9a3d
000002d0: d37a 2f3e d627 a6bc 1f25 2b3e 574c 9d3e
000002e0: 4bba 083e 1c71 943e 3b9e 1a3e b249 8f3e
000002f0: 14b0 963c c1e9 4fbe ce17 18be f0bf f8ba
00000300: a49e 8fbe fa76 c5bc c67a 723e 2a72 bb3d
00000310: 4d5e 893e 268f 8c3d babe c1bd 7e6c e2bd
00000320: 23e4 b5be b1aa 4bbd 3c25 bcbe 9ac1 a9be
00000330: 7132 323e 8224 803d 6307 71be 0691 9ebe
00000340: 4ab5 183b fbea 3c3b 8c2f 4a3c 2343 ae3c
00000350: 7ffe 72bb 73e4 2cbf 4820 a03e ad94 273d
00000360: 08f1 00bf 5d28 a4be 7390 093f f9ca 11bf
00000370: 4979 15bd ab41 b13e f784 82be 1acd 52be
00000380: 770a 85be ee88 41bc ea86 24bd 4e2e 63be
00000390: 832e d1bd bd95 153d 6376 a4be 5031 8d3d
000003a0: 374e acbe fa9c 0b3f 6c7d 833d ecd6 55be
000003b0: ec0f 78be fe7d 91be 313f 8a3d e150 3b3e
000003c0: 5d30 f83c f7e6 8f3e 3f98 f23e 8f0f d7bd
000003d0: fca9 673e 40e1 5a3e 4ae6 b43e 0608 d0be
000003e0: 1ea6 b13d 0419 f0be 062b 06bf 811c a43e
000003f0: da9f e4bc b450 c9be 1d26 ad3e 798e 243d
-0.13913856 0.14651209 -0.29976144 0.06942708 0.07336387 0.15325888 -0.2781102 -0.39469582
-0.18061623 -0.18612917 -0.4331456 0.3882861 0.5924684 0.20561558 -0.22200875 -0.0765634
0.22407416 -0.0022825624 -0.14203976 -0.24543613 0.029783316 -0.117376395 0.12734698 0.5622427
-0.30375108 -0.2504249 0.23631723 0.41224468 -0.2819099 -0.16664343 -0.30520222 0.2135283
-0.21478075 -0.4139263 -0.5905146 0.3489767 0.3767778 -0.36805665 -0.0414683 0.3561922
0.07408909 -0.39272407 0.059552096 -0.14163592 -0.34383473 0.016053272 0.2697685 -0.17643514
0.058913205 0.23631544 0.30524078 -0.41376382 -0.47592604 0.10765593 0.12546365 0.0072069485
0.41598076 -0.15027769 -0.07814252 -0.08776846 -0.1424556 -0.046610836 -0.20455699 0.0914541
-0.26957792 0.054844033 0.11171166 -0.17229488 0.25593746 -0.29866022 -0.06085012 -0.19269083
0.054875772 0.28374195 -0.06965297 -0.13836662 -0.47523615 -0.6604149 -0.570552 -0.005815963
0.107238434 0.24122137 0.0074900454 -0.22614889 -0.11243939 0.1331768 -0.121258594 -0.1488796
0.10863842 0.2759028 -0.37831748 -0.2067341 -0.23133467 0.06104779 -0.023517821 0.27709362
0.1377337 0.4170139 0.17509109 0.11477428 -0.78429586 0.42981902 0.29042834 -0.28764278
0.051906917 0.27751982 -0.15549609 0.09079943 0.024403999 -0.47696772 -0.029621676 -0.11519138
-0.09586135 -0.33455768 0.46689245 -0.31528997 -0.34016106 -0.3731664 0.3500409 -0.43167734
-0.6637245 -0.37213 0.352698 0.38735363 -0.34332624 -0.10210036 0.026632743 -0.1681138
0.20688508 0.14072372 0.27216795 0.33338657 0.035093646 0.22955962 0.27966958 -0.35905766
0.0719768 0.07996512 0.024490472 0.5544462 0.100906074 0.17312187 0.52095354 -0.38588437
0.09942494 -0.1935605 -0.23398213 -0.20286699 0.3115625 0.43038276 -0.63164043 -0.64942104
0.00031235116 -0.1647812 0.08345548 -0.17119144 0.072031386 -0.30002847 0.1819732 0.11114787
-0.02350024 0.55675125 0.07717762 0.2749446 0.43630034 0.42670324 0.26635075 0.26656932
0.110246554 -0.337188 -0.11503892 -0.0029450764 0.033364344 0.61903775 0.41296157 0.6265868
0.25655252 -0.48874044 0.086332954 0.07528004 0.17136697 -0.020282667 0.1671338 0.30722305
0.13352315 0.28992546 0.15099423 0.27985913 0.018394507 -0.20304014 -0.14852831 -0.00189781
-0.2805072 -0.024104584 0.23679647 0.091526344 0.26829758 0.06863241 -0.09460206 -0.110558495
-0.35525617 -0.04972333 -0.36747158 -0.3315552 0.17402054 0.06256963 -0.23537974 -0.3097002
0.0023301416 0.0028826583 0.012340438 0.021272248 -0.003707796 -0.67536086 0.3127463 0.040913273
-0.50367785 -0.32062045 0.53736037 -0.56950337 -0.03649262 0.34620413 -0.2549207 -0.20586053
-0.25984547 -0.011812432 -0.040167727 -0.22185633 -0.102139495 0.036519755 -0.32121572 0.06894171
-0.33653423 0.545364 0.06420407 -0.20882767 -0.24224824 -0.28416437 0.06750334 0.18292572
0.030296499 0.281059 0.4738178 -0.105010144 0.22623438 0.21374989 0.35331947 -0.4063112
0.086742625 -0.46894085 -0.524094 0.32052997 -0.027908254 -0.39319384 0.3381814 0.040174935

linear1.bias f4 [256]
00000000: 2193 5abe b8e9 473c 6d71 9abd 4f3c 473e
00000010: 780f 9cbc 7f4f 653e 637e 5bbd 511c 103f
00000020: 0a37 d2bd 30ba 333d 6ed7 9ebd 3b05 a93d
00000030: a42b 5ebe a2b8 423e ef15 73be 472a 94be
00000040: 69d3 9cbe b1bb 69bd 4cce a63e f8ef a43d
00000050: 8575 8bbe eca8 50bd b2c1 ffbd b279 993e
00000060: 150a a83e 7a99 a2bd 52de 933e 3526 253e
00000070: 46af 8a3c e7e2 e73e 541f 24be c53f 2bbe
00000080: 4d45 a9be cb8b b4be 8fcb 663e 68f5 a13d
00000090: 465a 32bd 9303 99be 4bff 9abd 0977 293e
000000a0: 30bf f43d d45b 82ba 8f6e d3be 52ea 64be
000000b0: 00aa 6abe b995 633e 58c9 ad3c a189 58bd
000000c0: 7702 89be 9492 b6be 3446 ae3c 3aa7 e8bd
000000d0: 48fc 3cbd 5b95 32be 7e19 733d 8a58 d33e
000000e0: 4adb 1dbe 17d8 8f3e 7ea5 053f b4f7 2a3e
000000f0: 8514 c6bd c6c3 86be b8ef 3abb 6cab c1be
00000100: fba1 6a3d 5ff2 b2bb a5e1 aabd 435a 4bbe
00000110: 4bf4 e5bb 92ef a63e 2ee9 5e3d 906d c4bb
00000120: 1c97 c9bd 51ff 723d eacf 82be 3033 9f3e
00000130: 356d 72be 989d 34be ae18 67be 9bce 683e
00000140: e3a7 993e 665c 36be 5466 b4bd e4dd 1cbe
00000150: b14c 6a3d 9f75 8abe 4d00 5bbe da83 28be
00000160: 0e9b cabc 6426 a3be 95ad 27be d4d3 a13e
00000170: 357d 37bb 262a dbbd e098 96bd 09ad 1dbe
00000180: 284e 86be 4545 0b3e a537 2c3e b718 a2be
00000190: 6d2f 1dbe a677 05be 24ed ac3e 46bb 7f3e
000001a0: 11ac 0ebc 55c7 6abe 30f7 633e e0e0 4f3e
000001b0: 0930 82be de0c 20be 69d8 31be 410b b4bd
000001c0: 7efe 62bd e13a e33b a75b be3e eb3f 48be
000001d0: ee6a bebd 3590 323e 235c b5be 176c 3ebe
000001e0: eecf 0cbe 9ff4 0cbc 872a 7abe a4c4 eabc
000001f0: f4b8 663e 1246 46be d533 d5bc c63b cdbd
00000200: 1816 8dbe 525b 82be b33b eebd 881f 913e
00000210: f223 553b 54ad bb3c 5955 c6be 1526 04be
00000220: 89cc 603d 29e5 02bf 44c9 9dbe 2d40 a5bd
00000230: 35cd 85be f400 9d3c 8979 893d ad56 3c3d
00000240: d6a2 a6bd c6c7 09bd a145 18bc 51a0 6dbe
00000250: f837 92be aa5c 0a3e d506 12be 5ee7 df3c
00000260: 7124 93be 08b7 a5be 97bc 2ebc a6a8 20be
00000270: 2fef 64be 3e4d dabd 1298 1f3c 9ea0 063e
00000280: 230f 1bbd 3069 2abe 825d 9fbe 6fa0 a03e
00000290: dc98 61be 5ded e1bd c441 e9bd 4c42 81bd
000002a0: 7387 8d3d 6cf5 903e b5b7 aa3e ab46 9bbd
000002b0: cf78 9abe b2df 8fbe 1153 e13d 63ff 2d3e
000002c0: 7875 7ebe 2c7c 43be f234 fe3e 25de 84bd
000002d0: a70c bfbe 1f04 dbbd 8365 26bd b53e 26be
000002e0: d923 2b3d e6cb 56be d2f6 97be 830b d03d
000002f0: d9f4 033e 0be8 b13e d0d3 3dbd 5eef 47be
00000300: 578f b6bd 3c1e 57bd cc47 53be 4307 8d3a
00000310: af3f 413e eadc 3d3e fc3d 81be 957c eb3b
00000320: 785a ba3e 3f5b b03e 4649 13be 2136 673e
00000330: cc88 063e 0ab1 b33d 6a3d 8cbb 6e96 43be
00000340: 8eee a13e a1d9 253e bf44 a1be c194 32be
00000350: 52aa cf3d 5922 e7bd 0eea f63c 7001 9a3e
00000360: 7266 9f3e c480 95be dffc 17be 5359 5cbe
00000370: 5389 d33e 653d 103e 4b1f ea3c 8fec 82be
00000380: 9424 c2bd f2c5 ae3d 1cad 01be c85e 113d
00000390: 0c5e ea3c e44e e3bd a005 09be a6a8 b5bd
000003a0: 83a3 243e ccf4 393e 17d9 81bd de8c 193c
000003b0: efc2 21be 4305 afbd 9784 f5be 9bee 60bd
000003c0: dfc2 dd3d 786e 493e 0216 b9be 68a5 a8be
000003d0: 75f2 6cbe a812 7fbe 6e3c 7dbe b060 fa3e
000003e0: 0650 ffbd 859b ce3d 26aa 153e be1d b33e
000003f0: 511f 13be 2fca fdbd 5654 0f3f 112b 1abe
-0.21345188 0.012201719 -0.075411655 0.194566 -0.019050345 0.22393607 -0.05358733 0.5629321
-0.10264404 0.043878734 -0.07755934 0.08252951 -0.21696335 0.19015744 -0.23738836 -0.28938505
-0.30630043 -0.057063762 0.32579267 0.08053583 -0.27238098 -0.050942346 -0.12488116 0.2997566
0.32820192 -0.079394296 0.28880554 0.16127856 0.01692928 0.452903 -0.16027576 -0.16723545
-0.33060685 -0.35262904 0.22538589 0.07908136 -0.043543123 -0.2988554 -0.075682245 0.16549315
0.119505286 -0.000994558 -0.41295287 -0.22355011 -0.22916412 0.22225083 0.021214172 -0.05286563
-0.26759693 -0.35658705 0.02127371 -0.11360021 -0.04613903 -0.17439787 0.059350483 0.41278487
-0.15415683 0.2809455 0.52205646 0.16696054 -0.096718825 -0.26321238 -0.0028524231 -0.37826097
0.057283383 -0.005461022 -0.083438195 -0.19858651 -0.0070176474 0.32604653 0.054421596 -0.005994506
-0.09843275 0.05932552 -0.2554925 0.3109374 -0.23674472 -0.17638242 -0.22568008 0.22735064
0.300109 -0.17808685 -0.0880858 -0.1531902 0.057202045 -0.27042863 -0.21386833 -0.16456547
-0.024732139 -0.31865227 -0.1637481 0.31606925 -0.0027998213 -0.107013986 -0.07353377 -0.15398039
-0.26231503 0.13600643 0.16818102 -0.3165948 -0.15350123 -0.13033924 0.33774674 0.24973783
-0.008708016 -0.22927602 0.22262263 0.20300627 -0.25427273 -0.15629908 -0.1736771 -0.08791209
-0.055418484 0.006934509 0.371793 -0.19555633 -0.09297739 0.17437823 -0.35421857 -0.1859592
-0.13751194 -0.008603244 -0.24430285 -0.028658219 0.22531492 -0.19362667 -0.026025692 -0.100211665
-0.2755592 -0.25460297 -0.116324805 0.2834437 0.0032522646 0.022909798 -0.3873699 -0.12905152
0.05488256 -0.5113092 -0.30817616 -0.08068881 -0.26133123 0.019165494 0.06712634 0.045981098
-0.08136527 -0.033637784 -0.009293945 -0.23205687 -0.28558326 0.13511911 -0.14260419 0.027332004
-0.2873874 -0.32366204 -0.0106650805 -0.15689334 -0.22356866 -0.10659264 0.009740846 0.13147208
-0.037856232 -0.16641688 -0.31126028 0.313724 -0.22030967 -0.110316016 -0.11389497 -0.06311473
0.069106005 0.28312242 0.33343282 -0.07581838 -0.30170295 -0.28100353 0.11002172 0.16991954
-0.24849498 -0.19090337 0.4964977 -0.06487683 -0.3731434 -0.106941454 -0.040624153 -0.16234858
0.041782234 -0.20976219 -0.29680496 0.10158446 0.1288637 0.34747347 -0.04634458 -0.19524905
-0.08914059 -0.052519068 -0.20632857 0.001075961 0.1887195 0.18541303 -0.25242603 0.007186482
0.36397147 0.34444615 -0.1438342 0.22579242 0.13138121 0.08774002 -0.004279782 -0.19100353
0.31627315 0.161963 -0.31497762 -0.17439558 0.10139908 -0.11285848 0.030140903 0.30079222
0.31132847 -0.29199803 -0.14842556 -0.2151845 0.41315708 0.1408592 0.028579375 -0.25571105
-0.09479633 0.08533849 -0.12663692 0.03549078 0.028609298 -0.110990316 -0.13381052 -0.08870058
0.16078 0.18159789 -0.06340235 0.009371964 -0.15797018 -0.085459255 -0.4795272 -0.054915052
0.10828184 0.19671047 -0.36149603 -0.32938695 -0.23139365 -0.2490946 -0.24730083 0.48901892
-0.12466435 0.10088257 0.14615688 0.3498363 -0.14367415 -0.12392079 0.5598806 -0.15055491

linear2.weight f4 [3, 256]
00000000: 6056 ce3d 3625 e43d 77a5 013e f1aa 973e
00000010: 0fbc a13e 3e3f aa3d 2b16 b2be 10f6 a43e
00000020: 6af9 aebd 4271 8cbd 4f02 c63e a58f cdbc
00000030: 1aca 35be 9001 f63e f8b9 1bbe f29f 8abe
00000040: 921e 41be b776 79bd 1fbe 423e d4de 973e
00000050: 0c82 343c 9ff0 18be cd40 f8be 177a 463e
00000060: ea92 953d 0e77 a7be b941 db3c 2772 da3c
00000070: 976a 5abd 55f1 8c3e 790c 9abe d0af 363d
00000080: 58a1 8ebe 3e2d 373c 9e81 aa3e 54ca dd3d
00000090: 2817 92be 264d 1cbe 4dce d9bd 1761 f43d
000000a0: 92f3 b83d 1132 893e 3cc7 03be da40 32be
000000b0: b0fa 80be 2ff4 8f3e 95bd 923d 4e12 0ebd
000000c0: ac39 d23c 795a f23c 85ed 0b3d dbad c53b
000000d0: bb8f 193d b1f3 9ebc 77fd b33e 71bb f13e
000000e0: 42ec 78bc 64b9 563e 6248 cd3e d870 8dbe
000000f0: b116 c03e cba4 56bd 0128 37bd 5feb afbc
00000100: 8cad 473c 9627 f3be ad90 523e 1dc2 4dbc
00000110: 02cd e33b 4468 e63e 5715 103e f220 63be
00000120: 781d 61be 09ee 9fbe 300f 1abe abdb b43e
00000130: 8b9c 8f3c efd3 0fbe 7805 e23c 9e3c f93e
00000140: 4355 823e c877 0bbf 630c e63e e8ad 91bc
00000150: 1c61 91be c164 c73c 4383 11bf 581a 303d
00000160: df61 4abe 129d 00bf 4044 17bd 6761 a73e
00000170: faae b1bd 4a1d cebd a9ca 2ebf 0a60 81be
00000180: 8c7b edbd fa6c 3f3e ac46 e43b 9874 bcbe
00000190: d9a2 5e3e d8f0 bdbd 8b41 ac3d d187 6f3e
000001a0: 53b4 cd3e a313 38be f7eb 0a3f bcf4 db3e
000001b0: 7345 cbbc 76f5 3bbe 8845 3a3d 5529 e6be
000001c0: e95c 743e 67ad 523e e6cd 723e 3eba 50be
000001d0: b67c a7be 37f2 043f 6d1f fcbb 07bc 0a3c
000001e0: 5c3e 44be a17b fcbd 7b31 e63c 769f 06bf
000001f0: 3687 d93e 8e66 c13e eee5 eebe f6c5 17be
00000200: a8db 0ebf c7b4 6bbe f070 9abb b8db 683d
00000210: b4e6 cb3e ed32 65be 66df ddbe 004b 10be
00000220: 202e 1dbf dc69 b7be 195e 61be b1f0 e6bd
00000230: e407 b63d 003d 92be f240 083f 7ce4 7dbd
00000240: 44f9 59be fbc6 13be be39 33be 09cd 82be
00000250: 3764 e7bc 0868 e33d dc11 4abe 06e8 a73d
00000260: 991d 6ebe 0732 b7bd 2dda db3d f0b8 8ebc
00000270: c56b 10bf aaf0 9fbd e833 4cbb edd8 823c
00000280: 3794 35bf eee5 fabc ec9c 4c3d b8e6 fa3d
00000290: 742c d23c e82e 0cbd d180 8bbb 76ec a63e
000002a0: 4ff1 8e3e 646b ee3e a33a 8e3e 0d9b 15bf
000002b0: f939 ccbe 6cee a73b 2e05 df3d 1776 003e
000002c0: 97c0 a7be 211c 753e 143d 883e 5fe5 2abd
000002d0: 9e7e 3abe 0b47 b1be 5ce5 ecbe 147a 9cbd
000002e0: 5d0a a53c ea59 8f3e 035e 33be abf2 34bb
000002f0: 2e63 173b a8c8 073e 38a9 79be 9b08 8bbe
00000300: 0144 1bbe 071e e43e 809f 8abe 064f 93be
00000310: 67b5 193e a4d0 623e 0782 1abe 3361 3abe
00000320: 0458 863e 6f65 8d3e 1923 05be b894 033f
00000330: f091 11bd e83c d43e 92c7 803c b5c6 e03c
00000340: 6eab 733e df19 203e 79bd 90bd 9157 4c3e
00000350: 9bbb 363e a350 babc cf46 a7be f216 d73e
00000360: 8e85 a63e 5266 edbd b31c c8be 3676 27be
00000370: 57aa ff3e ace5 9d3d b860 913c db34 b9bd
00000380: f063 90be ae2a 8bbe 5f77 153d f0b3 513e
00000390: 1094 7e3e 7868 dabc fb41 773e e9ef eabe
000003a0: 788f 6b3e 06d9 efbd 4d32 7abe a071 16bf
000003b0: e1c8 8abd cde6 c7bc 8b40 d23c 6e3b 21bd
000003c0: dd41 9d3e 491f 8dbe f791 b2bc 2211 aebe
000003d0: 13a2 bebd 89b3 a53e be0c 4cbe de65 ba3e
000003e0: 6cd5 82be 36dd 0b3e ae13 ae3e d737 113f
000003f0: d21e d9bd 9a0a 443e d9f9 603e a7fc 57be
0.100750685 0.1113991 0.12660776 0.29622605 0.3158879 0.08312844 -0.34782538 0.3221898
-0.08543666 -0.0685754 0.38673636 -0.02509291 -0.17752877 0.48048067 -0.1520766 -0.27075154
-0.18859318 -0.06090423 0.19017838 0.29662192 0.011017334 -0.1493554 -0.4848694 0.19382511
0.07303412 -0.3270802 0.026764737 0.02666576 -0.05332431 0.27527872 -0.3008764 0.04460126
-0.2785747 0.01118022 0.33302015 0.10829607 -0.28533292 -0.15263805 -0.10635052 0.11932581
0.09030832 0.2679601 -0.1286897 -0.17407551 -0.2519126 0.28115985 0.07165066 -0.034685425
0.025662266 0.029584156 0.034162063 0.006032688 0.037490588 -0.01940331 0.35154316 0.4721332
-0.015193047 0.20969158 0.40094286 -0.27625155 0.37517312 -0.052403253 -0.044715885 -0.021474538
0.012187373 -0.4749114 0.20563002 -0.012558487 0.006951929 0.45001423 0.1407064 -0.22180536
-0.21983898 -0.31236294 -0.15044856 0.35323843 0.0175307 -0.1404569 0.027590498 0.4867906
0.25455675 -0.54479647 0.44931325 -0.01778312 -0.283944 0.024340035 -0.56840914 0.042993873
-0.19763897 -0.5023967 -0.036930323 0.326915 -0.08675952 -0.1006418 -0.68277985 -0.25268584
-0.1159583 0.18693915 0.0069664326 -0.36807704 0.21741809 -0.09274453 0.08410939 0.23391654
0.4017664 -0.17976241 0.54266304 0.42960155 -0.02481339 -0.18355355 0.045476466 -0.4495341
0.23863567 0.2057396 0.23711357 -0.20383546 -0.32712334 0.5193209 -0.007694176 0.008467681
-0.19164413 -0.12328268 0.028099766 -0.5258707 0.4248597 0.37773556 -0.46659797 -0.1482161
-0.5580392 -0.2301818 -0.00471317 0.056850165 0.3982445 -0.22382708 -0.43334502 -0.1409111
-0.61398506 -0.35822952 -0.22008552 -0.11276377 0.08888224 -0.28562164 0.532241 -0.061985478
-0.21286494 -0.14431374 -0.17502496 -0.25547054 -0.028246028 0.11103827 -0.19733375 0.08198552
-0.23253478 -0.08945089 0.10734973 -0.01742217 -0.56414443 -0.07809575 -0.0031158868 0.015972579
-0.7092928 -0.030627217 0.04995434 0.12251037 0.025655963 -0.03422442 -0.0042572995 0.3260228
0.2791848 0.46566308 0.2777911 -0.58439714 -0.3988798 0.0051248576 0.1088966 0.12545048
-0.32764122 0.23936512 0.266091 -0.04172265 -0.18212363 -0.34624514 -0.46268737 -0.07640472
0.020146543 0.27998286 -0.17516331 -0.0027610462 0.0023099887 0.13260138 -0.24380958 -0.27155003
-0.1516266 0.4455416 -0.27074814 -0.28771228 0.15010606 0.22149903 -0.15088664 -0.18201141
0.26239026 0.2761645 -0.1300167 0.513988 -0.035539567 0.41452718 0.015720163 0.0274385
0.23795864 0.15634869 -0.07067389 0.19955279 0.17845003 -0.022743529 -0.3267121 0.42009693
0.3252377 -0.11591782 -0.39084396 -0.16353688 0.49934646 0.07709822 0.017746314 -0.090432845
-0.28201246 -0.27181 0.036490794 0.20478797 0.24861169 -0.026661143 0.24146263 -0.45886162
0.23003948 -0.11711316 -0.2443325 -0.5876713 -0.06776596 -0.024402047 0.025665542 -0.039363317
0.30714312 -0.2756293 -0.021798117 -0.33997446 -0.09308257 0.32363537 -0.19926736 0.36405843
-0.25553453 0.13658604 0.3399939 0.5672583 -0.10601582 0.19144669 0.2197031 -0.21092473

linear2.bias f4 [3]
00000000: eae8 6e3e 3abf 9dbd 8068 f436
0.23331037 -0.07702489 7.283932e-06
