rede_neural/model/model.pth (torch, 10048 bytes, 4 tensors)

linear1.weight f4 [256, 4]
000000 9b c3 8b 3e da c3 e4 be d9 42 d8 be f1 55 06 3d
       0.27297673 -0.44680673 -0.422385 0.032796804
000010 49 99 ea bd be a1 86 bd 9a c1 87 3d f0 70 de bd
       -0.11455018 -0.065738186 0.066287234 -0.10861385
000020 80 6e a5 be e2 93 ee be 8e 29 96 3e 50 b3 70 bd
       -0.32310867 -0.465972 0.2932858 -0.058764756
000030 5c af fa bd 96 ed 1d be 0b a9 c4 3e 48 8a 68 be
       -0.122404784 -0.15422663 0.3841022 -0.22709
000040 bf 05 ed 3e 37 68 85 be e8 bb b3 3e 3a 72 5a be
       0.46293446 -0.26056072 0.351043 -0.21332636
000050 63 aa ea be 2c 79 ce 3e e2 bd 9a 3e 3f 4a e5 bd
       -0.4583312 0.40326822 0.30222994 -0.11195802
000060 75 f3 e5 3e bd 7f c0 3e d7 e6 ac 3e ee b9 f0 be
       0.44912305 0.37597457 0.33769867 -0.47016853
000070 76 0a bd be 59 db 96 3d 8d e0 fa bd 3f 23 d6 3e
       -0.36922044 0.07366056 -0.12249861 0.41823766
000080 53 29 e4 be 6d 54 55 3e df 3c ee 3e b7 eb c6 3d
       -0.44562778 0.20832987 0.46530816 0.09712928
000090 02 24 d8 3e 80 e0 0b 3c a4 ac 29 be d8 e8 e9 bd
       0.42214972 0.008537412 -0.16569763 -0.114213645
0000a0 a0 6e cf 3e f2 3e 01 be 62 e3 09 be 93 21 bb 3e
       0.40514088 -0.12621668 -0.13465646 0.36549053
0000b0 3f d1 1e 3e cb 1c c5 be 44 7a 76 3e 20 b1 77 be
       0.15509509 -0.3849853 0.24070078 -0.24188662
0000c0 c0 8b dc 3c 1e 8b c3 be 54 b4 1d be b0 81 07 3d
       0.026922107 -0.38192075 -0.15400821 0.033082664
0000d0 e0 b1 1a 3e c1 cf e0 3d eb 98 39 be 6e 2f b6 bd
       0.15106916 0.10977126 -0.1812474 -0.08895765
0000e0 e2 a4 e4 be f8 1a d4 bd 78 62 f1 bd 92 f7 cd be
       -0.44657046 -0.103567064 -0.117863595 -0.40227944
0000f0 80 ef bb 3c 10 e6 e0 bd f4 23 a6 be f4 5b 28 be
       0.022941351 -0.10981381 -0.32449305 -0.16441327
000100 ee 43 a1 3d fb 37 8c 3e db 9c af bd 6b 98 b1 3e
       0.07874285 0.2738646 -0.0857484 0.34686598
000110 f2 d7 c9 be 87 13 8c be 90 fa eb bd dd d1 e4 3e
       -0.39422566 -0.27358648 -0.115224004 0.44691363
000120 fe a2 40 be a8 4f 37 3e 45 74 56 3e 28 99 af 3d
       -0.18812177 0.1790148 0.20942791 0.08574134
000130 83 08 b5 bd b0 e7 8d be c4 15 cd be 6c 55 d1 3e
       -0.08839514 -0.27715826 -0.40055668 0.40885484
000140 b3 9c f9 3e e3 db 56 3e ec bf 7d bd f5 da 44 3e
       0.48752365 0.20982318 -0.06195061 0.1922415
000150 af b7 85 be c8 83 7a 3e 82 6b b2 3e ce 53 03 bd
       -0.26116702 0.24464333 0.34847647 -0.032062344
000160 c8 8d cf 3e c2 96 05 3c db 1c 93 3e 41 fa 8e bb
       0.40537858 0.008153619 0.28732952 -0.0043633287
000170 1b dd 1e be 02 ac 2d 3e 48 8f cc be 4f 09 94 3e
       -0.15514033 0.16960147 -0.39953065 0.28913352
000180 e2 68 e5 be 16 37 a3 be 80 4c 11 3c fc 95 d6 3e
       -0.44806582 -0.31877965 0.008868337 0.41911304
000190 74 d0 34 be 15 78 7d 3e 82 c5 e4 be 44 6b d7 3d
       -0.17657644 0.24752839 -0.44681937 0.10518506
0001a0 88 e2 c1 be 0b eb 23 be 2a c5 92 3e 66 99 ab 3e
       -0.37868142 -0.1600763 0.2866605 0.3351547
0001b0 8c b6 10 be 80 40 19 bc 3c 48 05 be 9c d1 80 3e
       -0.14132136 -0.009353757 -0.13015836 0.2515992
0001c0 c0 7e f5 be 76 3c ca 3c b4 da e0 3e 66 3b b5 be
       -0.47948265 0.024687033 0.43916857 -0.3539688
0001d0 08 95 92 3d 90 72 13 3e a0 62 c5 be 6c 97 05 be
       0.07157332 0.14399171 -0.38551807 -0.13046044
0001e0 39 b6 e7 3e 25 b2 ba be 85 8a e9 3e b6 ba 89 3e
       0.45256212 -0.36464038 0.45613495 0.26900262
0001f0 cc 63 9a 3d 53 a7 03 3e 68 43 ac 3e a4 d0 bc be
       0.07538566 0.12856798 0.33645177 -0.3687793
000200 41 84 23 3d db e2 94 be 80 72 19 3e bf 02 59 be
       0.03992105 -0.29079327 0.14985085 -0.21192454
000210 fc 75 e5 3e a0 44 83 3d 70 41 88 bd 39 e8 83 3e
       0.44816577 0.064095736 -0.06653106 0.2576311
000220 53 8f e2 3e fd 01 be bb 81 3c 21 be b5 d4 e4 be
       0.44249973 -0.005798577 -0.15745737 -0.44693533
000230 00 23 58 3c 98 87 82 3d a0 25 2c bd b6 3b ba be
       0.013191938 0.06373519 -0.04202807 -0.3637368
000240 ba 60 f9 be 14 bd b2 3e 6d 79 01 3e 31 17 de 3e
       -0.4870661 0.3490988 0.12643977 0.4337707
000250 a9 1a b2 3e 56 9b f9 be 01 57 17 3d ff 99 83 3e
       0.34785965 -0.48751324 0.036948208 0.25703427
000260 29 8e 2b be 15 2e f8 3e 6e 29 99 be c3 5b e5 be
       -0.16753449 0.48472658 -0.2991442 -0.4479657
000270 f1 a4 39 3e 00 30 77 3d 08 bc ec be 23 f8 2c 3d
       0.18129326 0.06034851 -0.46237206 0.04222883
000280 27 1d e6 3e d0 6c 52 bd 6c d0 38 be ce 5b 44 3e
       0.44944116 -0.051373303 -0.18048257 0.19175646
000290 c9 ea 52 bc 8e 41 f8 bd 1d 97 e2 be 6e 3e 8a be
       -0.01287336 -0.121218786 -0.44255915 -0.27000755
0002a0 b6 95 13 bd a8 e3 2c 3e 4b 1a 52 3e 3e 98 94 3e
       -0.036031447 0.16883719 0.20517842 0.29022402
0002b0 a8 9b 88 3e 4e 72 8d 3e c8 d3 19 be 28 cf 72 be
       0.26681256 0.2762627 -0.15022194 -0.23711836
0002c0 84 b3 ab 3d 2c 91 34 3e aa 68 f2 bd 90 f9 8a be
       0.08383849 0.17633504 -0.11836369 -0.27143526
0002d0 9c ff 89 3e fc bf 7c 3e 0d 0a bd 3e e4 dd 96 3e
       0.26952827 0.24682611 0.3692173 0.29466164
0002e0 61 2a 71 3e d9 15 b9 3e da ca 82 be 86 de c7 3c
       0.23551323 0.3614948 -0.25545388 0.0243981
0002f0 ad d4 3f 3e 94 10 b2 be 96 c9 ea 3e 39 ee d4 3e
       0.18733473 -0.34778273 0.45856923 0.41588
000300 26 40 10 bd b8 4d 95 3e a6 19 fd 3d 09 34 9e 3e
       -0.035217427 0.29160857 0.12358408 0.30899075
000310 18 1b e0 3d fe f3 bc be c4 4e 04 be 40 13 6a bd
       0.10942668 -0.369049 -0.12920672 -0.057147264
000320 9d 3e 34 3e e6 0e 73 be af 51 a1 3d 49 56 df 3e
       0.1760201 -0.23736152 0.07876908 0.43620518
000330 a8 96 4c be 44 06 3d 3e 00 5b 63 be e4 d6 d1 be
       -0.19979346 0.18459421 -0.22202682 -0.4098426
000340 80 91 d3 be 58 22 bf 3e f6 74 2c be 76 45 e3 3d
       -0.41321945 0.3733089 -0.16841492 0.11097233
000350 74 67 96 be fd 7a d9 3e e4 63 26 be 30 01 e6 3e
       -0.29375803 0.42476645 -0.16249043 0.4492278
000360 98 03 be bd 3a 96 ed be 00 e1 cd be e2 dd a0 be
       -0.09278029 -0.46403676 -0.40210724 -0.31419283
000370 6d 44 ab be ef c8 c7 be 5f e9 e3 3e 64 c9 20 be
       -0.33450642 -0.39020488 0.44513986 -0.15701824
000380 8a cd eb 3e 30 04 4b be 2e 17 90 3e 6c 6d da 3e
       0.4605525 -0.19825816 0.28142685 0.42661607
000390 bd 5c 8d 3d 3b 4b a0 3e 84 e8 48 be 26 da cf 3e
       0.06902454 0.31307396 -0.19619948 0.40596122
0003a0 9d ee ed bd 97 d1 50 be a4 57 0a bd 7b a4 ef 3d
       -0.116177775 -0.20392452 -0.033774987 0.11701294
0003b0 c0 c3 33 be 46 1b e1 be 88 79 a3 3e 28 58 1b 3e
       -0.17555141 -0.4396612 0.31928658 0.15170348
0003c0 12 17 f7 be 52 10 c3 be f8 52 96 3d 38 fc 58 be
       -0.4825979 -0.3809839 0.07340044 -0.21189964
0003d0 40 71 73 3c 85 a1 b9 3e e0 3d e5 be ba 27 fa 3a
       0.014858544 0.36256042 -0.4477377 0.0019085326
0003e0 24 52 3a 3e 00 c8 c8 39 ec c2 fb be a4 4c 89 be
       0.18195397 0.00038295984 -0.4917215 -0.26816285
0003f0 00 7f de bb 9a b0 b5 3e 7c b0 ef be c8 1c 8e be
       -0.006790042 0.354863 -0.46814334 -0.27756333

linear1.bias f4 [256]
000000 84 9b d6 3e 1c ff cb 3d 89 1a 8c 3d 93 f5 9b 3e
       0.41915524 0.099607676 0.06840999 0.30460796
000010 b8 38 ea bc 5a 73 d7 3e db c6 54 be 7b ee fe 3e
       -0.028591499 0.42080194 -0.20778982 0.4979132
000020 1d 5b 38 3e 74 77 ef be 62 37 1a be 83 f7 c2 3e
       0.18003507 -0.46770823 -0.1506019 0.3807946
000030 1c d5 23 be ea 33 e4 3e 10 84 5e be 5a 08 81 be
       -0.15999264 0.44570857 -0.21730065 -0.25201684
000040 3f 37 85 be 9f f1 11 be 20 14 cf 3e 44 7d 9a 3e
       -0.26018712 -0.14252327 0.40445042 0.30173695
000050 89 f6 84 bd be d5 a5 3e c7 bc 28 3e d3 0f c4 3e
       -0.06492335 0.32389635 0.16478263 0.38293323
000060 5e c2 a6 be 61 5c fd bd c5 3d 5f be e2 72 dd be
       -0.32570165 -0.123711355 -0.21800907 -0.4325171
000070 02 03 d5 be 8c d2 e2 be 57 d4 2d bc 0e ca a7 3d
       -0.41603857 -0.4430126 -0.010609708 0.08192836
000080 09 9b e7 3e 74 72 d7 be 10 cb 86 3e 82 81 cd be
       0.4523547 -0.42079508 0.263268 -0.4013787
000090 ea 39 d3 3b 59 63 80 3d 86 92 9d 3e 9f ea 35 be
       0.006446113 0.06268949 0.3077585 -0.17765282
0000a0 a7 26 db be 83 7a ec 3e 7f ea 08 be fc a0 d2 be
       -0.42802927 0.4618722 -0.13370703 -0.41138446
0000b0 11 49 8b 3d e5 c7 03 be 4b e5 29 3e 51 ef d8 be
       0.06801046 -0.12869222 0.16591375 -0.42370084
0000c0 d4 4b c1 3e f8 c1 c1 be e0 65 ae 3e c0 58 7e be
       0.37753165 -0.378433 0.340621 -0.24838543
0000d0 2b 56 e7 3e 6e f3 ff 3d f2 9a cd 3e 70 40 c8 3e
       0.45182928 0.124976024 0.40157276 0.39111662
0000e0 18 0b db be 58 65 d8 be 2d 4f c0 3d f0 b5 cd be
       -0.427819 -0.4226482 0.093901016 -0.4017787
0000f0 00 0b 27 be 11 a8 d4 be 88 2f a2 be 90 29 89 bd
       -0.1631279 -0.41534474 -0.31676888 -0.066973805
000100 9a 63 b7 3e 50 db 85 3e 87 c3 26 be 00 7e b4 bd
       0.35818177 0.26143885 -0.16285525 -0.08813095
000110 b4 83 81 3e df 1d 51 3e 61 de ea 3e b5 7f e2 3c
       0.25295794 0.20421551 0.45872787 0.027648786
000120 7f e0 83 3e b8 38 9c be 8c 15 35 be 84 65 96 bd
       0.25757214 -0.30512023 -0.17684 -0.07343581
000130 db 85 33 be dc aa 90 be 52 fe ff be a1 a0 1c 3e
       -0.1753153 -0.28255355 -0.49998719 0.1529565
000140 a2 73 26 3e dd b9 b0 3e e9 ce ce be 2a cb bc 3e
       0.16255048 0.34516802 -0.40392235 0.36873752
000150 d2 05 23 3d 01 24 49 be b5 ba 1e 3e 94 aa cd be
       0.039800473 -0.1964264 0.1550091 -0.40169203
000160 22 87 cb be 53 f0 8f bd 39 82 f4 be 08 5f fc 3e
       -0.39751536 -0.0702826 -0.47755602 0.49291253
000170 4b c4 59 bd bd eb 8a be e0 a7 b6 bc 00 0e 09 3e
       -0.053165715 -0.2713298 -0.022296846 0.13384247
000180 de 59 99 be 0b c3 0f 3d 4e 98 d9 3e 0f a0 82 bc
       -0.29951376 0.035098117 0.42499012 -0.015945463
000190 13 df 20 be 44 fe be 3d 18 36 16 be 00 52 d7 bc
       -0.15710096 0.09325841 -0.14669073 -0.026284218
0001a0 40 f9 4e 3e 14 1f 82 be a0 6d b2 3d 2c 96 b6 3e
       0.20212269 -0.25414336 0.087123156 0.35661447
0001b0 c5 f5 56 be 20 da 4b be a0 b7 21 3d 5d d1 2c bd
       -0.20992191 -0.19907427 0.03948176 -0.042191852
0001c0 f8 75 7b bc 05 8a 2e 3e a0 31 d3 bc e1 6c 01 bf
       -0.01534795 0.17044838 -0.025780499 -0.5055676
0001d0 e8 4b d8 be 68 d6 a8 3e 3f 56 dc 3e d7 60 fc 3c
       -0.42245412 0.3297608 0.4303455 0.030807896
0001e0 b2 46 2b 3e e0 dc 51 be 8a 40 7e 3e bd 27 fe 3e
       0.16726187 -0.20494413 0.24829307 0.49639693
0001f0 48 ed f2 be c6 77 a4 3e ae d8 a3 3e 01 6a 3f be
       -0.47446656 0.3212263 0.3200125 -0.18692781
000200 e3 b5 de 3e 7a 8c 27 be bc a4 da 3e f2 d8 b1 be
       0.43498144 -0.16362181 0.42703807 -0.3473583
000210 b7 1c 5a 3e f6 86 f1 3e 07 2c 06 be 95 5c fb 3e
       0.21300016 0.4717328 -0.13102733 0.49094072
000220 97 41 d8 3e 20 19 9d 3e 32 ce 3e 3e ac e2 fa 3e
       0.4223754 0.3068323 0.18633345 0.49001062
000230 8c b1 69 be d8 70 74 be 73 e5 b2 3e 30 e2 f5 bd
       -0.22821635 -0.23871171 0.3494068 -0.120060325
000240 1c 79 d8 be bb f3 7d be 44 39 f6 be e9 2d bd 3e
       -0.422799 -0.24800007 -0.48090565 0.3694909
000250 20 5d f8 be 0d da 45 3e 97 22 3a be da 07 aa be
       -0.4850855 0.19321461 -0.18177257 -0.33209115
000260 c2 5f 97 be 60 ad f8 3e 62 dc b5 3e 8e 68 b6 be
       -0.29565245 0.48569775 0.355197 -0.35626644
000270 cb af 8c be ae ff bf 3e 90 57 9c 3e 12 d5 7d 3e
       -0.2747787 0.37499756 0.30535555 0.24788311
000280 75 a4 cf be 67 ed b2 3d 46 c4 f8 be 83 b5 10 3e
       -0.40555158 0.08736687 -0.48587245 0.14131741
000290 cc c7 3c 3e 23 76 31 3c 19 c4 5e 3e 9a 7b c6 3d
       0.18435591 0.010831389 0.21754493 0.09691544
0002a0 b0 1b 44 3e ab 01 8b be 87 b5 c1 bd 00 de b7 bc
       0.19151187 -0.2714971 -0.09458452 -0.022444725
0002b0 86 78 e4 3e a8 89 9e bd ec d0 c6 bc 82 00 d4 be
       0.44623202 -0.077410996 -0.024269544 -0.41406637
0002c0 e6 3a eb be 27 c4 13 3c 5d 18 6f 3d 99 96 2b be
       -0.45943373 0.009018934 0.058372844 -0.16756667
0002d0 1a 67 fd be 12 ef 74 3e ba 4e fe be ad b8 69 bd
       -0.49492723 0.23919323 -0.4966944 -0.057060886
0002e0 e0 60 88 3c 84 db 9d 3e 1d 72 1d 3c 8f de 4f bd
       0.016647756 0.3083154 0.009609726 -0.050749358
0002f0 cb af da 3e ab 06 90 bd bd 3f 2b be 09 4d 6b be
       0.42712244 -0.07032522 -0.16723533 -0.22978605
000300 92 27 49 3e 84 ac 56 be 33 f7 f6 3e b1 9a e0 3e
       0.19644001 -0.20964247 0.48235473 0.4386802
000310 3e cd 2a bd 7f 2e b3 3e 8f f7 f3 be 5f f1 63 3e
       -0.04169964 0.3499641 -0.4764981 0.22260045
000320 50 b0 06 3e 28 7b d3 3e 4a 90 f8 be 6d d3 94 bd
       0.13153195 0.41304898 -0.48547584 -0.07266889
000330 80 ef 29 bd 9a 19 b8 3d ae 57 52 3e a6 f6 f1 be
       -0.04148817 0.08989258 0.2054126 -0.4725849
000340 70 d5 a8 bd 6f c5 b7 be 54 83 43 3e 4c 01 fe be
       -0.08243835 -0.35892817 0.19093066 -0.49610364
000350 14 dd 78 3e 20 35 65 3e e2 82 f5 be 37 95 8f 3e
       0.24303085 0.22383547 -0.47951418 0.2804353
000360 09 9f e1 3e a0 2e ae bd ef f0 22 3e 4f 7e 83 3e
       0.44066647 -0.08504987 0.15912221 0.25682303
000370 b1 02 79 be 7e 4a e5 be 60 66 36 3d 09 51 87 bd
       -0.24317433 -0.44783396 0.044531226 -0.06607253
000380 94 33 4c 3e 24 d1 45 be 19 6e ca be 8a d7 c5 be
       0.1994155 -0.19318062 -0.39537123 -0.38641006
000390 e8 1b 56 3d ae cf a6 be 4b e6 99 3e 41 d2 16 be
       0.052272707 -0.32580322 0.30058512 -0.14728643
0003a0 7c fb 22 3e fc fe 1f be e1 9a 67 bd 12 8e a0 be
       0.15916246 -0.15624613 -0.05654419 -0.3135839
0003b0 da de ef 3d e0 91 1e be 2f a4 51 be e0 6e 2a be
       0.117124274 -0.15485334 -0.20472787 -0.16643858
0003c0 84 66 c0 bd f8 c6 f3 be b4 55 31 3e 4d b4 ad be
       -0.09394553 -0.4761274 0.1731785 -0.3392662
0003d0 5e f3 db 3e ab 82 52 be 09 ef 4b 3d 0e 7a 0a bd
       0.42959112 -0.20557658 0.04978851 -0.033807807
0003e0 98 3a bf be e6 21 c2 3d 8f d4 c1 be fa 58 27 be
       -0.3734939 0.09479122 -0.37857482 -0.16342536
0003f0 db eb f7 3e 62 fc 80 3e aa 39 dd bd 1f 85 d0 3e
       0.4842213 0.25192553 -0.10802014 0.40726563

linear2.weight f4 [3, 256]
000000 19 87 f4 3c 2c da 21 bd 00 ae 94 bb 35 e1 4a bd
       0.029849576 -0.039514706 -0.004537344 -0.04953118
000010 a4 8c 2b 3d 2d 8a 21 3d 1b cc 0d 3d 71 33 da 3c
       0.041882172 0.039438415 0.03461848 0.026635857
000020 31 37 ac 3c b0 88 9d 3c 89 10 c6 bc 61 e8 db bc
       0.021022411 0.019230217 -0.024177806 -0.026844205
000030 74 dc dd 3c 15 04 03 bb 50 c1 50 3d e4 f1 df 3c
       0.02708266 -0.0019991447 0.050965607 0.027337022
000040 f0 f1 4b bd 9b fe 9a bd 10 be 29 bd b7 62 55 3d
       -0.049791276 -0.075680934 -0.041441023 0.052096095
000050 b5 19 54 bd 58 d6 6c bd 11 4f 4c 3d 19 d6 22 3d
       -0.05178233 -0.0578216 0.04988009 0.03975496
000060 ce a6 13 3d a0 c7 44 bc bf 8d 70 3d ec 3b 3a 3d
       0.03604775 -0.012010485 0.05872893 0.045467302
000070 ca f5 44 bd d0 e7 f4 bb 73 26 5e 3c 2a ab c7 bc
       -0.048085965 -0.0074739233 0.013558972 -0.02437361
000080 80 01 16 3d c5 04 80 3d 92 33 14 3d 38 57 28 bd
       0.036622524 0.0625091 0.036181994 -0.041098803
000090 7c cc f4 3c d3 e7 7c bc c6 18 80 bd 98 a1 6a bc
       0.029882662 -0.015436131 -0.06254725 -0.0143207535
0000a0 34 74 c2 3d 90 fa 87 bb 5e 91 05 3d a4 f8 38 bd
       0.0949482 -0.0041497424 0.032609336 -0.045158997
0000b0 4b 79 84 bd ac 76 67 bd 45 0d 26 3d 9f a1 a0 bb
       -0.06468447 -0.05650966 0.04054 -0.0049020792
0000c0 7b 8f 1c 3d 90 2f 31 bd 4c 24 9a bb dc b3 5f 3d
       0.03822277 -0.04325825 -0.004704034 0.054614887
0000d0 3b 48 11 3d 77 94 dd 3c 5b f4 72 3c 71 95 fc 3c
       0.035469275 0.027048333 0.014828767 0.030832978
0000e0 83 8e 9a 3c 36 1d e3 3c da a3 58 3b 58 89 d9 bc
       0.018866783 0.02772389 0.0033056648 -0.026554748
0000f0 38 30 96 bc f4 3e f0 3c 54 de af bc 57 4d de 3b
       -0.01833354 0.029326893 -0.021468319 0.006784122
000100 c5 63 19 bd 86 10 7c 3a ca ec 7b bd ac 17 a1 3c
       -0.037448663 0.00096154993 -0.061505117 0.019664608
000110 b2 80 d3 3b 2a e4 92 3c a1 04 21 3d e4 b4 a5 bc
       0.0064545507 0.017931063 0.039311055 -0.020227857
000120 0e 0d d3 3c ce 47 6e bd d8 eb 35 3d cc 90 1e bd
       0.02576306 -0.058173947 0.04441437 -0.038712308
000130 0e 00 03 3b 80 ab 3f bd 20 a3 34 3d 3b df 2c 3d
       0.0019989046 -0.046794415 0.04410088 0.042205077
000140 aa e5 11 3d ac 44 97 bc 38 bf 3b 3b 8a 1e d0 bc
       0.035619415 -0.018465362 0.002864791 -0.025405187
000150 e2 3c 44 bd b0 05 1f 3d b5 87 80 bd 1c c0 77 bd
       -0.047909625 0.038823783 -0.06275884 -0.060485944
000160 98 d6 4a bd ef af 1e 3d 48 42 ae bd cc 3c 5a bd
       -0.04952106 0.038742002 -0.08508736 -0.053280637
000170 77 d2 0b bd 1b 87 f7 bc 0c 49 88 bc 5e 88 13 bb
       -0.03413626 -0.03021579 -0.016636394 -0.00225117
000180 01 c4 1e 3d ee 80 02 bd db 17 8c bd a6 f7 f6 bc
       0.038761143 -0.03186124 -0.068404876 -0.030147385
000190 61 60 6e bc 8d 3c c2 bb cc 7d 05 bd 28 6c 9c bc
       -0.014549346 -0.0059276284 -0.032590672 -0.019094542
0001a0 8a 2d 0b 3d a0 9a bc 3b b7 47 0c bd 34 1f ea bb
       0.033978976 0.0057557374 -0.03424808 -0.007144833
0001b0 6e aa 6d bd b7 99 24 bd 4a 7b 4f 3d 71 51 b3 3c
       -0.058023863 -0.040185656 0.050654687 0.02188942
0001c0 63 79 9d 3c ce 06 5d bc 19 d1 82 bd 6b 48 14 3a
       0.01922292 -0.013490392 -0.063875385 0.0005656543
0001d0 66 8a 14 3d 74 89 33 bc d0 99 34 3c 35 c8 48 3d
       0.0362648 -0.010958064 0.011023 0.049019057
0001e0 81 34 e4 bc ea 1a b0 3c 44 83 b5 3b 7c 79 6f bd
       -0.027857067 0.021497209 0.0055393297 -0.058465466
0001f0 c4 9e cb bc b0 5a 13 bc 01 21 46 3d b9 90 26 3b
       -0.024855979 -0.00899379 0.04837132 0.0025415851
000200 ff aa d7 3c 5f a1 28 3c 18 ea 58 bd 48 2e 7a 3d
       0.026326654 0.01029238 -0.052957624 0.061079293
000210 e2 20 ac 3c 24 d6 23 bd 01 f8 60 bd c7 e8 d5 3c
       0.021011773 -0.039999142 -0.054924015 0.026111973
000220 da 77 55 3d fe d6 89 bd 26 5f 8d bd 09 b8 70 bd
       0.052116252 -0.0673046 -0.06902914 -0.05876926
000230 54 b3 b4 bd c4 28 a0 bc e4 64 69 3c c4 79 ff bc
       -0.088232666 -0.019550689 0.014245246 -0.031185992
000240 32 8a 5a 3d 11 4f a3 bd 64 83 d9 3c ea de e5 bc
       0.05335445 -0.07974065 0.02655191 -0.028060395
000250 c0 41 ac 3b c4 da 2e bd a0 36 e1 3c 94 31 ed 3c
       0.0052568614 -0.0426891 0.027491868 0.028954305
000260 04 82 ed bc 0e 7e 1e bd e5 3d 19 bd a5 4f 0c 3d
       -0.02899266 -0.038694434 -0.037412543 0.034255642
000270 d0 40 82 bd a5 a2 2f 3d c1 6b 6c 3d 23 f6 2d 3d
       -0.06360018 0.04287972 0.05771995 0.042471062
000280 17 34 7c bd 76 9c 79 bd 48 39 37 bc 7c 81 32 bc
       -0.061573114 -0.06094023 -0.0111830905 -0.010895129
000290 51 d8 47 3c f3 46 2b 3d 2f 21 43 3d e4 97 4f bd
       0.01219757 0.04181571 0.04763907 -0.050681964
0002a0 cd 9c 0a 3d 97 ed 2b 3d 8b 6f 0e bd a8 ee 39 3c
       0.033840943 0.04197463 -0.034774344 0.011348404
0002b0 9a 03 b4 3c ec 9f 56 3d 8e 1c 69 3c c0 0c fe bb
       0.021974374 0.052398607 0.014227999 -0.0077529848
0002c0 de 5f 17 3d 51 02 04 3c a6 dc f7 bc a8 df 3b 3d
       0.03695666 0.008057193 -0.03025658 0.045867592
0002d0 40 53 74 3b e0 d4 13 bc e0 ab 64 3b 5c fb 80 bc
       0.0037281066 -0.009022921 0.0034892485 -0.015744857
0002e0 3e 01 53 3d d9 4f 9e bc 77 20 1c bd e8 ca 82 bd
       0.051514857 -0.019325184 -0.0381169 -0.063863575
0002f0 dc 4a 8f 3c 88 2f ad 3c 01 f9 85 bc 69 44 32 3d
       0.01749175 0.021140829 -0.016354086 0.043522272
000300 bb 20 32 bc b4 32 d8 bc a0 d2 5b 3d 98 b5 00 bd
       -0.010872061 -0.026391365 0.053667665 -0.03142318
000310 62 06 31 3d 12 b0 93 bc ac 2b c2 bc db 99 85 bd
       0.043218978 -0.018028293 -0.023702465 -0.06523486
000320 26 eb ae bc 2b 3f 1c 3c 52 9b 20 bd 74 ee fc bc
       -0.021352362 0.009536545 -0.039210625 -0.030875422
000330 b8 fa 11 3d 3a 18 f2 3c 42 7d 09 3d 34 ce 3d 3d
       0.035639495 0.029552568 0.03356672 0.04633923
000340 ec e3 84 bd 29 a9 44 3c 0e b2 73 3c 14 ce 89 3c
       -0.06488785 0.012003222 0.0148739945 0.016821899
000350 1a c2 8a 3c e8 31 2d 3b c8 ad 29 3d f3 cf 38 bd
       0.016938258 0.0026427452 0.041425496 -0.04512019
000360 01 83 bc 3c 48 90 a5 bc b4 10 99 3c f1 1c df bc
       0.023011686 -0.0202104 0.018684722 -0.02723548
000370 da fe 30 bd bc 86 5a bd a5 bf d0 3c 65 ab bb 3b
       -0.043211795 -0.05335115 0.025482008 0.005727219
000380 4a e9 19 bd 98 c2 ab bc 0c 42 7f 3c 80 e1 03 bb
       -0.037575997 -0.020966813 0.015579712 -0.0020123422
000390 39 eb 9e 3c ce 84 92 bc c5 41 11 bd 5c 3c a7 3a
       0.019399272 -0.017885592 -0.035463113 0.0012759077
0003a0 ab dc f9 bc b5 7b e5 bc 1e 50 31 bd 18 6e 51 bc
       -0.03050073 -0.02801309 -0.043289296 -0.012782596
0003b0 0c 42 a7 b8 80 1c 01 3d 7d dc c1 3d 56 28 63 bd
       -7.975483e-05 0.03152132 0.09465883 -0.05545839
0003c0 fb a5 54 3d f0 c7 94 bc a7 c1 04 3d 4f 40 b5 bb
       0.051916104 -0.018161744 0.032411244 -0.005531348
0003d0 e5 99 de 3c d9 24 25 bc c8 bd 28 bd d6 78 11 bd
       0.027172992 -0.010079586 -0.041196615 -0.03551563
0003e0 d1 01 61 bd fb 46 20 bb ad a4 b4 bc 25 e6 4c bd
       -0.054933373 -0.002445637 -0.02205118 -0.05002417
0003f0 58 e5 0b 3d a5 5e 24 3d 50 47 3d 3c 7d 3c 20 3d
       0.034154266 0.040129323 0.011552647 0.039120186

linear2.bias f4 [3]
000000 4f 37 1d bd 4f 37 ce bb ae ca 5a 3c
       -0.038382825 -0.0062932144 0.013353987
